checkpoint_solved.pth (torch, 30060 bytes, 6 tensors)

fc1.weight f4 [64, 37]
0	0x3d81949a	0.063271716
1	0x3e29cc28	0.16581786
2	0x3dca256f	0.09870421
3	0x3bc5cf66	0.0060366867
4	0xbdf3116b	-0.118685566
5	0xbf19dae7	-0.60099643
6	0x3e816fab	0.25280508
7	0x3e6997d0	0.22811818
8	0xbe786248	-0.24256241
9	0xbedb56fa	-0.42839795
10	0xbdef4c06	-0.11684422
11	0x3d1870ad	0.03721683
12	0xbc622cd3	-0.013804632
13	0x3d921590	0.07133019
14	0x3e87e5c5	0.26542488
15	0xbdb0a943	-0.08626034
16	0x3d8ed7a7	0.06974726
17	0x3df35378	0.11881155
18	0xbd1b6211	-0.03793532
19	0xbf0715b1	-0.52767473
20	0xbed9dc76	-0.4255101
21	0xbe8fc97b	-0.28083405
22	0x3e2584e7	0.1616398
23	0x3dbbce0f	0.09170162
24	0xbea5a752	-0.32354218
25	0xbc7743ed	-0.015091878
26	0xbd754481	-0.059879784
27	0xbd841bdd	-0.06450627
28	0xbde21eae	-0.11041008
29	0xbdb60143	-0.088869594
30	0xbe459fe2	-0.19299272
31	0x3d55ab56	0.05216535
32	0x3e32e939	0.1747178
33	0xbda3d3fc	-0.07999417
34	0xbd764829	-0.06012741
35	0xbc8e0dbf	-0.017340539
36	0xbc3bfeba	-0.011474306
37	0x3de948eb	0.11390861
38	0xbc0fdc92	-0.008780615
39	0x3c38c322	0.011276992
40	0xbe2a6a80	-0.16642189
41	0xbdb8238b	-0.08991154
42	0xbc8ce306	-0.017198097
43	0x3e88e40c	0.26736486
44	0xbd844cab	-0.06459936
45	0xbe068cf0	-0.13139701
46	0xbee9a2b4	-0.45631945
47	0xbdd04eaa	-0.10171254
48	0x3d46332d	0.04838865
49	0x3b8cc195	0.0042955377
50	0xbd1f0316	-0.038821302
51	0x3d58c588	0.052922755
52	0xbdf0a168	-0.11749536
53	0x3cd2c836	0.025730234
54	0x3d521dd8	0.051297992
55	0x3db94d6b	0.090479694
56	0x3e9bb314	0.30410063
57	0xbdd6d990	-0.104907155
58	0xbe210f32	-0.15728453
59	0xbbeace06	-0.007165673
60	0x3e192cde	0.14958522
61	0x3e90ac61	0.28256515
62	0xbd8bf64a	-0.06834085
63	0xbe298f0a	-0.16558471
64	0x3d064660	0.03278196
65	0xbd2c1f1a	-0.04202185
66	0x3d0cb055	0.03434785
67	0xbcabbbe3	-0.020963615
68	0xbdff80e9	-0.124757595
69	0x3cd8501b	0.026405385
70	0x3d92fce2	0.0717714
71	0x3e25bf9c	0.16186374
72	0xbd160533	-0.036626052
73	0x3d73b410	0.059497893
74	0x3e706825	0.23477228
75	0xbc2c42c5	-0.010513966
76	0xbb705338	-0.0036670696
77	0xbde4b097	-0.11166494
78	0xbf094c9b	-0.53632516
79	0xbcda5245	-0.026650557
80	0xbcf66984	-0.03007961
81	0xbd00c71c	-0.031439885
82	0x3e6fe917	0.2342876
83	0x3e08ae2e	0.13347694
84	0x3cac1232	0.02100477
85	0xbdf71455	-0.12064425
86	0xbbe53846	-0.0069952337
87	0xbde7344b	-0.11289271
88	0xbe0788ae	-0.13235733
89	0x3e307241	0.17231084
90	0x3c06ad63	0.00822005
91	0xbdbf8a53	-0.09352555
92	0xbe216386	-0.15760621
93	0xbeba0ffb	-0.36340317
94	0x3e6c3555	0.2306722
95	0x3dc83da5	0.09777383
96	0x3d0bd5a4	0.03413929
97	0xbe12a84b	-0.14322011
98	0xbead11a2	-0.33802515
99	0xbe588df3	-0.211479
100	0x3d1e6bcc	0.03867702
101	0x3da428d8	0.08015603
102	0x3d6c2ff5	0.057662923
103	0x3e25d0b2	0.16192892
104	0xbe39b845	-0.181367
105	0x3d1120e2	0.03543175
106	0x3aaae4e0	0.0013038181
107	0x3d9cbf03	0.0765362
108	0x3e6fd306	0.23420343
109	0x3dc55cfe	0.096368775
110	0x3cac1fe0	0.021011293
111	0x3eb8aaa3	0.36067685
112	0xbec059dd	-0.3756856
113	0xbea1d3b7	-0.31606838
114	0xbe36c9e8	-0.17850459
115	0xbf9d75c2	-1.2301562
116	0xbc5b6a14	-0.01339199
117	0xbd589459	-0.05287585
118	0xbd44b8d3	-0.048027825
119	0xbd18680b	-0.037208598
120	0x3d93939d	0.072058894
121	0x3c70de13	0.014701384
122	0x3d2a7ec8	0.041624814
123	0x3e1b8bdf	0.15190075
124	0x3e103cd3	0.14085703
125	0xbc814f78	-0.015784964
126	0xbe35d7b7	-0.1775807
127	0x3d9ae914	0.075639874
128	0x3e03aa2b	0.12857883
129	0x3e2a64d5	0.16640027
130	0x3e35c53d	0.17751022
131	0x3e026f3d	0.12737747
132	0x3dccb047	0.0999456
133	0x3d384803	0.04499055
134	0xbdfe2108	-0.12408644
135	0xbe8bf5f7	-0.27336094
136	0x3d5b4bdd	0.053539146
137	0x3e248446	0.16066083
138	0x3d7aab7d	0.0611987
139	0xbcd68797	-0.026187701
140	0xbd9d0f45	-0.07668928
141	0x3cfb25f1	0.03065774
142	0xbd16b66e	-0.036795072
143	0x3d6ae62b	0.05734841
144	0x3a9ff5d8	0.0012204004
145	0xbc9b140a	-0.018930454
146	0xbc873727	-0.01650579
147	0xbcacf2d0	-0.021111876
148	0xbe32ba40	-0.17453861
149	0xbe43d62b	-0.19124667
150	0x3dc649b3	0.09682026
151	0xbe19fc23	-0.15037589
152	0xbd9286cb	-0.07154616
153	0xbc851935	-0.016247371
154	0xbe37bbf0	-0.17942786
155	0xbe679213	-0.22614317
156	0x3ecc5412	0.3990789
157	0xbd3a88d2	-0.04554064
158	0x3dbf4faa	0.093413666
159	0xbe69a8f6	-0.2281836
160	0xbcc0e20e	-0.023545291
161	0xbe19e548	-0.1502887
162	0x3eac93a1	0.33706382
163	0x3d5379f4	0.051629975
164	0xbe0c3092	-0.13690403
165	0x3e35cb7d	0.17753406
166	0xbe17ecc4	-0.14836413
167	0x3ebbf7e2	0.36712557
168	0xbe48cf67	-0.19610368
169	0x3d596d50	0.053082764
170	0xbc6d4779	-0.014482372
171	0x3dc9cfb3	0.098540686
172	0xbdbd1ad6	-0.09233634
173	0xbe423d34	-0.1896866
174	0x3d59a751	0.05313808
175	0xbd9571e7	-0.07297116
176	0xbddc7f32	-0.10766448
177	0x3e874640	0.26420784
178	0xbdff17c8	-0.12455708
179	0x3e3b3fd3	0.18286066
180	0xbe04f279	-0.12983121
181	0xbe52f261	-0.20600273
182	0xbd71bd4b	-0.059018414
183	0x3db8d432	0.09024848
184	0xbd081062	-0.03321875
185	0x3d6cb8e4	0.057793513
186	0x3d8a4ea2	0.06753279
187	0x3da7462f	0.08167683
188	0x3d828f38	0.06374973
189	0xbe0d4185	-0.13794525
190	0xbb91c45b	-0.004448456
191	0x3e0a670e	0.13515875
192	0x3db98f61	0.090605505
193	0x3dcaf20b	0.09909447
194	0x3d292ca1	0.041302327
195	0xbf497c2b	-0.7870509
196	0x3e766b67	0.24064408
197	0x3e3524f9	0.17689885
198	0xbcd7dc25	-0.02635009
199	0xbf3e21f6	-0.7427057
200	0xbdeca178	-0.11554235
201	0x3d36b11c	0.0446025
202	0x3b06df35	0.002057982
203	0x3d3e838f	0.046512183
204	0x3d9529ec	0.072833866
205	0xbe8ac1f0	-0.27101088
206	0x3dec3018	0.11532611
207	0xbd2ba1c0	-0.041902304
208	0xbccc9eda	-0.02497809
209	0xbc85d3fb	-0.016336432
210	0xbc92307f	-0.01784539
211	0x3c0e0b63	0.008669707
212	0x3d977309	0.07394988
213	0x3e16f8fd	0.14743419
214	0x3edc5c3a	0.43039113
215	0xbe1cef07	-0.15325557
216	0xbd8db0d4	-0.06918493
217	0x3caf94d5	0.021433273
218	0x3dee585a	0.116379455
219	0x3d44cfbd	0.048049677
220	0xbcb5285c	-0.022113971
221	0xbc0ea34e	-0.008705927
222	0x3cd6e6c3	0.026233083
223	0xbcf9bc33	-0.030485248
224	0x3c4c3534	0.0124638565
225	0xbddd97e3	-0.10819986
226	0xbde6d3e8	-0.11270887
227	0xbce32657	-0.027728243
228	0xbe2ece81	-0.17070962
229	0xbe5fbdd3	-0.21849756
230	0xbe0750f1	-0.1321447
231	0x3edd1f15	0.43187776
232	0x3de86245	0.113468684
233	0x3d6e5048	0.05818203
234	0xbcd7dbe8	-0.026349977
235	0xbc8c6a08	-0.017140403
236	0xbe43a6db	-0.19106619
237	0x3d1acbbf	0.037791964
238	0xbe7afad2	-0.24509743
239	0x3b0cd22c	0.0021487577
240	0xbe486791	-0.19570757
241	0x3d5a42ef	0.05328649
242	0xbe29ef8b	-0.16595285
243	0x3e08238c	0.1329481
244	0x3d062842	0.032753237
245	0x3dc07dbd	0.09398983
246	0xbbec3412	-0.0072083557
247	0xbd00f63a	-0.03148482
248	0xbe9e6f88	-0.30944467
249	0xbe1e410b	-0.154545
250	0x3db5e1e1	0.088809736
251	0x3f01f442	0.5076333
252	0xbdfc0ea4	-0.1230748
253	0xbca5ed57	-0.020254774
254	0xbd075c13	-0.033046793
255	0x3df4b0d3	0.11947789

fc1.bias f4 [64]
0	0xbdcea49c	-0.100899905
1	0x3d1e940e	0.038715415
2	0x3dc7d44b	0.097572885
3	0xbd9a68b4	-0.07539502
4	0xbe4954cf	-0.19661258
5	0xbdd4b68b	-0.1038638
6	0x3bbc8fd7	0.0057544517
7	0x3d5eb385	0.054370422
8	0xb982d841	-0.00024956654
9	0x3e45d71d	0.1932034
10	0x3dde9c81	0.108696945
11	0x3de08333	0.10962524
12	0xbe478f13	-0.19488172
13	0xbde9a570	-0.11408508
14	0xbce55c1c	-0.027998023
15	0xbd76ffe3	-0.060302626
16	0x3e293e00	0.16527557
17	0xbdfcd80b	-0.123458944
18	0x3cd24d2f	0.02567157
19	0x3d3a4791	0.045478407
20	0xbdba9860	-0.091110945
21	0xbe1381f5	-0.14405043
22	0xbe18b64b	-0.14913289
23	0x3dab173b	0.0835404
24	0xbdefdd36	-0.117121145
25	0x3def22cf	0.11676561
26	0xbc57a37a	-0.013161534
27	0xbe1ac242	-0.15113166
28	0xbdcf9f95	-0.1013786
29	0xbd87bf7e	-0.06628321
30	0x3d076d2d	0.033063103
31	0x3d89530d	0.06705294
32	0xbe17cba0	-0.1482377
33	0x3df17956	0.11790721
34	0xbcf7e734	-0.030261613
35	0x3e27453e	0.16335008
36	0x3cc28f59	0.023749994
37	0xbe45c676	-0.19313988
38	0xbde3c0a9	-0.111207314
39	0xbcd83705	-0.026393423
40	0xbc5ca2f1	-0.013466583
41	0xbe3302b7	-0.17481504
42	0xbdd2879a	-0.1027977
43	0x3d85f9d9	0.06541795
44	0x3cc50fe6	0.024055433
45	0x3e4354ab	0.19075267
46	0x3dabc569	0.083872624
47	0x3d6880d6	0.056763493
48	0x3c2d5aff	0.010580777
49	0x3d7dbd93	0.06194837
50	0xbddd4f01	-0.108060844
51	0x3e2a9413	0.16658048
52	0xbdb74fad	-0.08950744
53	0xbca01c5a	-0.01954477
54	0x3d887918	0.06663722
55	0x3dc81da9	0.09771282
56	0x3c85894c	0.01630082
57	0xbda1f17f	-0.0790739
58	0xbe08a446	-0.13343915
59	0x3ba79069	0.0051136506
60	0x3dfc6c47	0.1232534
61	0x3c9d7a23	0.019223278
62	0x3d073856	0.03301271
63	0xbdb57790	-0.08860695

fc2.weight f4 [64, 64]
0	0xbe0a282d	-0.13491888
1	0x3d067e9b	0.032835584
2	0x3e3b6cde	0.18303248
3	0x3e690781	0.22756769
4	0x3d09d4ee	0.03365033
5	0x3d4dcdf8	0.050245255
6	0x3d861e9c	0.06548807
7	0xbe803c52	-0.2504602
8	0xbf1ff164	-0.6247771
9	0xbcdef55e	-0.02721661
10	0xbe2ffabc	-0.17185491
11	0xbd676beb	-0.056499403
12	0x3db2017d	0.0869169
13	0x3e067248	0.13129532
14	0x3dc5ebab	0.09664091
15	0xbdfa790d	-0.1223012
16	0xbe5859a4	-0.21127945
17	0x3e5e4f9b	0.21710055
18	0xbe983e79	-0.29735163
19	0x3e13ff57	0.14452873
20	0xbe236049	-0.15954699
21	0xbea32d6b	-0.3187059
22	0xbe7d6d98	-0.24748838
23	0x3d929b14	0.07158485
24	0xbd983a77	-0.07433026
25	0x3de9b510	0.11411488
26	0xbdddeb67	-0.10835915
27	0xbb057145	-0.0020361703
28	0xbe1c731e	-0.15278289
29	0xbe3ac6f5	-0.18239959
30	0xbdde047b	-0.10840698
31	0x3f4d4719	0.8018661
32	0x3d9369c1	0.07197905
33	0x3d4647df	0.048408385
34	0xbec6706b	-0.38757643
35	0xbed47e2d	-0.41502514
36	0x3c1ee4b1	0.009698079
37	0xbdef075d	-0.11671326
38	0xbc73b928	-0.014875688
39	0x3d489856	0.048973404
40	0x3c7c8f8f	0.015415086
41	0xbe2fcbe1	-0.17167617
42	0x3c5b663b	0.013391073
43	0xbe15cd3e	-0.14629075
44	0x38e1bd05	0.00010764044
45	0x3aba7a75	0.0014227169
46	0xbddaa6be	-0.10676335
47	0xbe8dfc21	-0.27731422
48	0xbe0b279d	-0.1358933
49	0xbeaa1aba	-0.33223516
50	0x3cdb4cca	0.026770014
51	0xbdbe2e4f	-0.092861764
52	0x3dbcd897	0.09220999
53	0x3e1c78ef	0.15280508
54	0x3ca36e39	0.01995002
55	0x3be240ae	0.006904683
56	0xbe41f4ba	-0.18941012
57	0x3b664d9f	0.003514148
58	0xbe29b1ad	-0.16571684
59	0xbe069d74	-0.13146001
60	0xbe4cde57	-0.20006691
61	0xbdd98b7f	-0.1062231
62	0xbe1e3bb6	-0.15452465
63	0xbd787203	-0.060655605
64	0xbea7c4a1	-0.32767203
65	0x3cdaa080	0.02668786
66	0xbcc7d122	-0.024391714
67	0xbc02904e	-0.007968975
68	0x3d3007b6	0.042976104
69	0x3e41060c	0.18849963
70	0xbe70522e	-0.23468849
71	0x3d11f16b	0.035630625
72	0xbe24929a	-0.16071549
73	0xbec97653	-0.39348087
74	0xbc860a07	-0.016362203
75	0xbccd8810	-0.025089294
76	0x3d256780	0.04038191
77	0xbe269122	-0.16266301
78	0xbd9b5b86	-0.07585816
79	0xbe704a4f	-0.23465846
80	0xbc26ba5e	-0.010176269
81	0xbe79abd8	-0.2438196
82	0xbddac0c7	-0.106813006
83	0xbdf08802	-0.117446914
84	0x3e7839f8	0.24240863
85	0xbe2538f0	-0.16135001
86	0x3b7851ba	0.003789051
87	0xbdba0264	-0.09082487
88	0xbd7949c2	-0.060861357
89	0xbe52e5b2	-0.20595434
90	0xbc0d41f1	-0.008621679
91	0xbe9c6f71	-0.30553773
92	0xbe0ade4a	-0.13561359
93	0xbe5f801a	-0.2182621
94	0xbd913cd0	-0.07091677
95	0xbe3c499b	-0.18387453
96	0xbd865e9d	-0.06561015
97	0x3d98b6f8	0.074567735
98	0xbd61cea9	-0.055128727
99	0x3da12efd	0.078702904
100	0x3d34d9e9	0.044153128
101	0xbdac76c6	-0.08421092
102	0xbcb0e181	-0.021591904
103	0x3e0688cc	0.13138121
104	0x3cc86db3	0.024466371
105	0xbd34879a	-0.044074632
106	0xbda75189	-0.081698485
107	0x3e0f9f9b	0.14025728
108	0x3d943eed	0.07238565
109	0x3e15bde4	0.14623219
110	0xbe58b846	-0.21164045
111	0xbcc46d42	-0.02397788
112	0x3da1ad8d	0.0789443
113	0xbe1aa5fa	-0.15102378
114	0xbd112c6c	-0.035442755
115	0x3da3b52f	0.079935424
116	0x3dfd5051	0.12368835
117	0xbe2baf8d	-0.16766186
118	0xbdea58bb	-0.11442705
119	0xbdeb2d55	-0.11483256
120	0xbd513e2b	-0.05108468
121	0x3d1d734e	0.03844004
122	0xbe1bf3ef	-0.15229772
123	0x3d3fd542	0.046834238
124	0xbdfd4fd3	-0.12368741
125	0xbe09fbf1	-0.13475014
126	0xbe1dd733	-0.15414123
127	0x3d64d1d0	0.055864155
128	0xbe89499b	-0.2681397
129	0xbd1ae3af	-0.037814792
130	0x3ea0a767	0.31377718
131	0x3bca2000	0.0061683655
132	0xbd33f0c5	-0.043930788
133	0x3dc53e6a	0.09631045
134	0xbc87f757	-0.016597433
135	0x3b7f11d6	0.0038920543
136	0xbdac46f4	-0.08411971
137	0x3d171d95	0.036893446
138	0xbbc45884	-0.005991997
139	0x3d6e4a80	0.058176517
140	0x3e12a98c	0.1432249
141	0xbe32cbf1	-0.1746061
142	0x3d28404b	0.04107694
143	0xbf1e022b	-0.6172206
144	0x3c7f086c	0.015565973
145	0x3db745e2	0.08948876
146	0x3d06ec27	0.032940056
147	0xbda96113	-0.082704686
148	0x3c97c5f9	0.018527018
149	0xbd1c1975	-0.038110215
150	0x3e0e23b8	0.13880813
151	0xbe3b6ad5	-0.18302472
152	0x3e8d2676	0.27568406
153	0xbd9d5ae0	-0.07683349
154	0xbe1cf58c	-0.15328044
155	0xbe6e23b4	-0.23255807
156	0x3e9595fd	0.29215994
157	0xbd97f1d5	-0.07419173
158	0xbe334dd3	-0.17510156
159	0x3e69a5ae	0.22817108
160	0x3d38cf1e	0.045119397
161	0xbdaff209	-0.085910864
162	0x3d9fa185	0.07794479
163	0xbd2702f0	-0.040774286
164	0x3dccecf1	0.100061305
165	0x3da4aa68	0.08040315
166	0xbdd3f03f	-0.10348558
167	0xbc8570c8	-0.01628913
168	0xbcb23c59	-0.021757292
169	0xbe5438e5	-0.20724829
170	0x3e210310	0.15723825
171	0x3d66adb0	0.056317985
172	0xbe28dd33	-0.16490631
173	0xbd8783b1	-0.06616915
174	0xbe9c4155	-0.30518594
175	0xbd54e304	-0.05197431
176	0xbe209f66	-0.15685806
177	0x3e4687fd	0.19387813
178	0xbef86540	-0.48514748
179	0xbbfaed46	-0.0076576797
180	0xbe3527c3	-0.17690949
181	0xbdbe4111	-0.09289754
182	0x3dccc0f9	0.09997744
183	0x3e32e824	0.17471367
184	0x3dc2fe38	0.09521145
185	0xbbfc7c32	-0.007705235
186	0x3bd7b8d7	0.006583314
187	0xbc2c0181	-0.010498405
188	0xbd3a22d1	-0.04544336
189	0xbe38ba71	-0.18039872
190	0xbd0b07e4	-0.033943072
191	0x3da66b67	0.08125954
192	0xbc1967ca	-0.009363124
193	0xbd78d7dd	-0.06075274
194	0xbd009497	-0.031391706
195	0xbdc203f2	-0.09473409
196	0xbe7071fa	-0.23480979
197	0xbed6b6b2	-0.4193626
198	0x3e2cfda8	0.16893637
199	0x3e3ba0e4	0.18323094
200	0xbe6f55ba	-0.23372546
201	0x3e173406	0.14765939
202	0x3bde6bd9	0.006787759
203	0xbdfa9960	-0.12236285
204	0x3daf4be2	0.085593954
205	0x3dbe28ef	0.09285151
206	0xbe00e738	-0.12588203
207	0xbe2c4124	-0.16821724
208	0x3d6c78e8	0.057732493
209	0x3c5800cc	0.013183784
210	0x3f1df146	0.6169628
211	0x3d8ac398	0.06775588
212	0xbe8bbd60	-0.2729292
213	0x3dddc36b	0.10828289
214	0x3ccd933e	0.025094625
215	0xbc245b9e	-0.010031609
216	0x3e287368	0.16450274
217	0x3e89e531	0.26932672
218	0xbd83ea54	-0.06441179
219	0xbe17b596	-0.14815363
220	0x3dafb776	0.08579914
221	0xbd23d933	-0.04000206
222	0xbe1be676	-0.15224633
223	0xbdf985ed	-0.121837474
224	0x3d57d811	0.05269629
225	0x3c273b6f	0.010207041
226	0xbe9b4ae0	-0.30330563
227	0x3dcc587c	0.099778146
228	0xbe85a839	-0.26104906
229	0x3e9ae05a	0.30249292
230	0xbc9b7ba3	-0.018979853
231	0xbe7402bd	-0.2382917
232	0x3e63e6dd	0.22256036
233	0xbe32ac5c	-0.17448562
234	0x3e082217	0.13294254
235	0x3d0ce829	0.034401093
236	0xbe57b7bd	-0.21066184
237	0xbd06b073	-0.03288312
238	0x3e32c6c2	0.17458633
239	0xbeb726d7	-0.3577182
240	0xbd81b7e9	-0.06333906
241	0x3d23dd9e	0.040006272
242	0x3ce7d5c2	0.02830017
243	0xbe25f2d2	-0.1620591
244	0x3de4ed7f	0.11178111
245	0x3dc08b6d	0.09401593
246	0xbe2babfb	-0.16764824
247	0x3ec2f89c	0.380803
248	0x3eb2beb7	0.3491113
249	0x3c611935	0.01373892
250	0x3d8d790f	0.06907856
251	0x3d9db9b9	0.077014394
252	0xbe888279	-0.26662043
253	0xbe356a36	-0.17716298
254	0xbe2502fb	-0.16114418
255	0xbde38e80	-0.11111164

fc2.bias f4 [64]
0	0x3d56aebe	0.05241274
1	0x3dfc1622	0.12308909
2	0xbce7fa21	-0.028317513
3	0xbce0fd36	-0.02746449
4	0x3ef488ff	0.4776077
5	0xbe14e78f	-0.14541458
6	0x3e0cb1d5	0.13739713
7	0xbdaa4b1b	-0.083151065
8	0xbda6db6b	-0.081473194
9	0x3c9447e8	0.018100694
10	0x3e4533b2	0.19258001
11	0xbddbad59	-0.10726423
12	0xbe65d674	-0.22445089
13	0xbd1eff08	-0.038817436
14	0xbdd9b941	-0.106310375
15	0xbdb6bb56	-0.0892245
16	0xbe5ecc00	-0.21757507
17	0xbd23e841	-0.040016416
18	0xbdd466c2	-0.10371162
19	0x3cca204b	0.024673602
20	0xbdcd5f44	-0.10027936
21	0x3d8baa98	0.068196476
22	0xbde65d5a	-0.11248274
23	0xbd9e343e	-0.07724808
24	0xbd873bcd	-0.06603203
25	0x3e18e23e	0.14930055
26	0x3e1f2600	0.1554184
27	0xbd9f2824	-0.07771328
28	0xbe5bdedf	-0.21471737
29	0x3dce0f5e	0.10061525
30	0xbde77789	-0.113020964
31	0xbe255cae	-0.16148636
32	0xbdaf2906	-0.085527465
33	0xbd8d4bf7	-0.06899255
34	0x3ee56f72	0.4481159
35	0xbcc550d1	-0.024086388
36	0x3ca0afc2	0.019615058
37	0x3e461285	0.19343002
38	0x3db3e1cc	0.08783302
39	0x3da2d37f	0.07950496
40	0xbd2a2d57	-0.041547146
41	0x3e9d1606	0.30680865
42	0xbdd1bbfd	-0.10240934
43	0x3eecff63	0.46288595
44	0x3ea43516	0.3207175
45	0xbdfb1dd5	-0.122615494
46	0x3f087544	0.53303933
47	0xbcd1284f	-0.025531916
48	0x3daa31d8	0.08310288
49	0xbdc82a2d	-0.097736694
50	0x3f0cbf4b	0.5497939
51	0x3d1de12e	0.038544826
52	0xb9785624	-0.00023683213
53	0x3e025ef5	0.12731536
54	0xbe0358db	-0.12826864
55	0xbe18e16f	-0.14929746
56	0xbce84283	-0.028352028
57	0xbc8ccd18	-0.01718764
58	0x3e8ce654	0.27519476
59	0x3c8ce718	0.017200038
60	0xbc50e6c5	-0.012750332
61	0xbc91c212	-0.017792735
62	0xbdc23935	-0.094835676
63	0xbe1bc352	-0.15211228

fc3.weight f4 [4, 64]
0	0x3e1d9288	0.15387928
1	0x3df14626	0.11780958
2	0x3e4d3409	0.20039381
3	0x3e82d430	0.2555251
4	0x3e42083b	0.18948452
5	0xbddf67e5	-0.10908488
6	0xbef93958	-0.48676562
7	0xbf066a81	-0.5250626
8	0xbe08f0f3	-0.13373165
9	0x3df38f48	0.11892563
10	0x3e88a0c5	0.26685157
11	0x3e620e93	0.22075872
12	0xbd4a97a2	-0.049461015
13	0x3dbf5924	0.09343174
14	0x3d4e31e6	0.050340556
15	0xbe069c92	-0.13145664
16	0xbe32a5bd	-0.17446037
17	0xbe890c6e	-0.26767296
18	0xbe638c39	-0.2222146
19	0x3d9ae032	0.07562293
20	0x3df0f544	0.11765531
21	0x3f097a6b	0.5370242
22	0x3f3f5ead	0.7475384
23	0xbe1aa38e	-0.15101454
24	0x3dcf4a45	0.10121588
25	0x3e946f86	0.28991336
26	0x3e9d4991	0.3072019
27	0xbe6245a2	-0.22096875
28	0xbe8300af	-0.2558646
29	0x3e695c63	0.22789149
30	0x3e493fe5	0.1965328
31	0xbec2bb9a	-0.38033754
32	0x3dd1c8c5	0.10243372
33	0x3e3b8130	0.18311
34	0x3e192211	0.14954402
35	0xbd416547	-0.047215726
36	0xbcdd3ef4	-0.027007557
37	0x3ea63541	0.32462505
38	0xbee4407f	-0.44580457
39	0x3ed5f256	0.4178645
40	0xbd8d5403	-0.069007896
41	0x3ddefe57	0.10888355
42	0xbdcdaba5	-0.10042504
43	0x3e112f5c	0.14178222
44	0x3e21ed6c	0.15813226
45	0x3becb57a	0.007223782
46	0x3e2937dd	0.16525216
47	0x3e627c7b	0.22117798
48	0x3e187938	0.14889991
49	0x3dbf0e23	0.09328868
50	0x3e5d924c	0.21637839
51	0xbc2bda66	-0.010489082
52	0x3ec40bfe	0.382904
53	0x3e468075	0.1938494
54	0xbd14caf4	-0.036326364
55	0xbdc37f48	-0.09545761
56	0xbcee5551	-0.029093416
57	0x3e74ca88	0.23905385
58	0x3e02c123	0.12768988
59	0x3cc339b9	0.023831235
60	0x3ebf76b3	0.37395248
61	0x3ec04cbc	0.37558544
62	0x3d3ee9cf	0.046609696
63	0xbccb821b	-0.024842313
64	0x3eae48ad	0.34039822
65	0x3e09105a	0.13385144
66	0xbc59a29c	-0.013283398
67	0x3ec15b33	0.37764892
68	0x3e1236da	0.14278737
69	0x3d9fd4bb	0.07804247
70	0xbdae3c36	-0.08507578
71	0xbefff8b1	-0.49994424
72	0xbe5a7d19	-0.21336783
73	0x3e03b736	0.12862858
74	0x3ea1f49f	0.31631944
75	0x3eaf3162	0.34217364
76	0xbe09fded	-0.13475771
77	0x3d60b842	0.054863222
78	0x3e24d2cd	0.16096039
79	0x3c979309	0.018502729
80	0xbdc74326	-0.097296044
81	0xbe812576	-0.25223893
82	0xbe92453b	-0.28568444
83	0x3e9609e0	0.2930441
84	0xbdcc76a7	-0.09983569
85	0x3ec08038	0.37597823
86	0x3ef5e2ba	0.4802454
87	0xbd6af213	-0.057359766
88	0x3b868a04	0.004105808
89	0x3e8afeb7	0.27147457
90	0x3e580cd1	0.21098639
91	0x3db889ab	0.09010633
92	0xbe69b6e4	-0.22823673
93	0x3e662ce4	0.22478062
94	0x3f1d84fd	0.6153105
95	0x3ea22956	0.31672162
96	0x3daeab41	0.08528758
97	0x3dea171a	0.114301875
98	0x3e558aca	0.20853725
99	0x3e0984c6	0.13429555
100	0xbd051efc	-0.032500252
101	0x3e86c6da	0.26323587
102	0xbd8325a8	-0.06403667
103	0x3ea7578b	0.32683977
104	0xbda535ed	-0.08066926
105	0x3def3365	0.116797246
106	0x3c3b2f42	0.011424841
107	0x3dbb58e8	0.09147817
108	0x3e3e050c	0.18556613
109	0x3d916db1	0.07101
110	0x3e445db3	0.19176368
111	0xbdf7b73d	-0.12095497
112	0x3e5a3989	0.2131101
113	0x3dc0de4c	0.094174
114	0x3e5940a0	0.21216059
115	0x3e4131d7	0.18866669
116	0xbcc28224	-0.023743697
117	0x3e443757	0.19161735
118	0xbd1b1ad2	-0.037867375
119	0xbdc8af62	-0.097990766
120	0x3d142733	0.036170196
121	0x3e765b2b	0.24058215
122	0x3dbe95a6	0.09305887
123	0x3d415cb1	0.047207538
124	0x3f0fd990	0.5619135
125	0x3dd640c3	0.10461571
126	0xbd2bfe43	-0.04199053
127	0xbdfd4fc3	-0.12368729
128	0x3e15886e	0.14602825
129	0x3dd5e883	0.10444739
130	0x3cee05b7	0.02905546
131	0x3ef6f23c	0.48231685
132	0x3de21926	0.11039953
133	0x3d069fe2	0.03286732
134	0xbd87524d	-0.066074945
135	0x3aa71cb1	0.001274964
136	0xbf294f5c	-0.6613672
137	0x3e37fd10	0.1796763
138	0xbce85cb9	-0.028364526
139	0x3ed258bb	0.4108332
140	0xbea87dfd	-0.3290862
141	0x3dfac7a9	0.122451134
142	0xbe2c6399	-0.16834868
143	0xbe1b4057	-0.15161262
144	0xbe58a763	-0.21157603
145	0xbd864d16	-0.06557672
146	0xbd7e80bf	-0.0621345
147	0xbd3d27e3	-0.046180617
148	0x3e663887	0.22482501
149	0x3eac6411	0.33670095
150	0x3f0336a7	0.5125527
151	0x3d7f06b5	0.062262256
152	0x3e961738	0.2931459
153	0x3e80126e	0.2501406
154	0x3e8011de	0.25013632
155	0xbb6216cb	-0.003449845
156	0xbd2d260c	-0.042272612
157	0x3e1300c7	0.14355765
158	0xbe658b28	-0.22416365
159	0xbee2b49a	-0.44278413
160	0x3e733f3d	0.23754592
161	0xbe081027	-0.13287412
162	0x3dee0517	0.116220646
163	0x3f15d122	0.58522236
164	0x3ea3be5f	0.3198118
165	0x3e1925ef	0.14955877
166	0xbee02dc9	-0.4378493
167	0x3e50b2c4	0.20380694
168	0xbe2ec5fd	-0.17067714
169	0x3de40149	0.111330576
170	0x3e649bc4	0.22325045
171	0x3e68d5eb	0.22737853
172	0x3e8fb428	0.28067136
173	0x3dc41587	0.095744185
174	0x3e464b48	0.19364655
175	0x3efd7f59	0.4951122
176	0x3ecec130	0.40381765
177	0x3f0a8261	0.5410519
178	0x3e204625	0.15651758
179	0x3eed7b6d	0.4638323
180	0x3e844594	0.25834334
181	0x3ddc448c	0.10755262
182	0xbe2e3f6c	-0.17016381
183	0xbe7520f4	-0.23938352
184	0xbe2edb79	-0.1707591
185	0x3dedc77a	0.11610313
186	0x3da7293e	0.08162163
187	0x3c917b5c	0.017759018
188	0x3e26410a	0.16235748
189	0x3f103661	0.56332976
190	0xbd966e73	-0.07345285
191	0xbe086434	-0.13319474
192	0x3f3ff63e	0.7498511
193	0x3d95de8b	0.07317837
194	0xbc6da625	-0.014504944
195	0xbe31a24a	-0.17347065
196	0x3e5317aa	0.20614496
197	0xbe281662	-0.16414788
198	0xbe881f99	-0.26586607
199	0x3e16cdf3	0.14727001
200	0xbd8d579a	-0.06901474
201	0x3d27d953	0.04097874
202	0xbd6de0a5	-0.058075566
203	0x3d1ff02e	0.039047413
204	0xbe2fcc4d	-0.17167778
205	0x3e6c5df5	0.23082717
206	0x3ebbf6aa	0.36711627
207	0xbd34eadc	-0.04416929
208	0xbe0c644a	-0.13710132
209	0xbe7cf464	-0.24702603
210	0xbec70243	-0.38868913
211	0x3d895f07	0.06707578
212	0xbea6d00b	-0.325806
213	0x3eedbb49	0.4643195
214	0x3eb4c71a	0.35308152
215	0x3de05025	0.10952786
216	0xbedc0d49	-0.42978886
217	0x3eaeee94	0.34166396
218	0x3dfbeddd	0.12301228
219	0x3e9f32b5	0.31093374
220	0xbe685183	-0.22687344
221	0x3e05781b	0.13034098
222	0x3f130aae	0.5743817
223	0x3d52481c	0.0513383
224	0x3d8714bf	0.06595754
225	0x3e66ac62	0.22526696
226	0x3dfccaa3	0.123433374
227	0xbdcc5a17	-0.09978121
228	0x3e8f6db5	0.28013387
229	0x3e505cfb	0.20347969
230	0x3c7db0f9	0.015484088
231	0x3e52852c	0.20558614
232	0x3e1800c5	0.14844044
233	0x3e3b4302	0.1828728
234	0xbea98835	-0.3311173
235	0x3e19c3ee	0.15016147
236	0x3e0c75f9	0.13716878
237	0x3f143a68	0.5790162
238	0x3e59eda2	0.21282056
239	0x3d05f830	0.032707393
240	0x3de8c62a	0.11365922
241	0x3e45d798	0.19320524
242	0x3e281caf	0.16417192
243	0x3e83b0bf	0.25720784
244	0x3c504de4	0.012713883
245	0x3d804d31	0.06264723
246	0xbe8d6e23	-0.2762309
247	0xbe2fb18b	-0.17157571
248	0xbf2c176e	-0.6722325
249	0x3ef78082	0.4834023
250	0x3d976323	0.07391956
251	0x3e1ef331	0.15522458
252	0x3f0528ea	0.52015555
253	0x3e69c684	0.22829634
254	0x3e85a1f9	0.26100138
255	0x3c97f8f7	0.018551333

fc3.bias f4 [4]
0	0x3eb134b0	0.3461051
1	0x3e93711a	0.28797227
2	0x3e990824	0.29889023
3	0x3e9d7137	0.3075044
