checkpoint.pth (torch, 29990 bytes, 6 tensors)

fc1.weight f4 [64, 37]
00000000: 8188 e8bd f217 66bd 2f1c 383d f9d6 d8bc
00000010: 5c51 83bc b979 cfbc e079 f83d 17d1 093e
00000020: d8e9 0f3e 6249 2ebe 9c53 1a3d a9e8 2cbd
00000030: d5a0 15bd 3bc6 55bd 1b25 d93d 5ef3 003e
00000040: aa60 ab3d 3d4d cb3d 455a 203e cfaf 71bd
00000050: 9d18 57bd b197 d4bb eedd 22bd 865f 7ebc
00000060: eef1 363e fe7e 1cbf 31fe 313e f1a8 893e
00000070: 4bed 74bc 0d97 63bf 01a7 2dbe 8d29 b73d
00000080: d836 ea3c a6d7 9e3d f851 b6bd 8504 123d
00000090: 3fdb c6bc 47fc 0a3d fcbd 8b3d 5038 e13d
000000a0: ce2e 283d 8d73 f03d cc52 31be 96f9 153c
000000b0: e34a 823c 3818 193d 458b 083e 5a53 05bd
000000c0: 89e9 7e3c bfc8 5e3c 4477 4d3d 28c6 6f3d
000000d0: 7c6d 5abe 65ed 163c 5b05 bb3b 9bd6 e53c
000000e0: 4c09 b63d ecc3 4dbe 7241 1abe fa30 473c
000000f0: 02c5 1b3e 7063 ef3e cb9e fabc 5fe9 3cbc
00000100: 37cd 293e a02d 863e c13a b23e 096f 1ebe
00000110: 0268 32bd 251f d63d 1067 c93d 54c6 bf3e
00000120: e2d0 09bc b0a5 2cbc a640 b03b 4316 70be
00000130: 1ed5 1b3e 316c fdbd 4600 c6bd 3394 fdbe
00000140: ad52 313d 415a 863d 5e0e 1d3e 318f 65be
00000150: c197 79bd 8b4f 503d e0ac 26be 1165 8bbd
00000160: 32c8 65be 6c0c 8a3d 68e2 4c3c 4b70 193d
00000170: d135 9bbe c78d 0fbf 345e 043e 4965 62be
00000180: 9ba1 073e 0980 43be eeae 39bf 05df 90bd
00000190: 93d0 9cbd 1788 233e d122 9ebe 2f09 45be
000001a0: 6bc2 c8be ea89 543d 93bf 6ebc f868 1fbe
000001b0: 4c7c 353c 99ca 863e 55fd 2b3d dc29 213d
000001c0: 4fd2 f73d 1157 933e 3fd9 193d c8e6 90bd
000001d0: 0047 e3bc f65d 023e 76b4 7a3d 02dd da3c
000001e0: 674c 69bd 6584 21bc 9e95 19be 10fc 76bd
000001f0: 249e 94bc 9e4f 9c3d b5c1 98bd 0b12 563d
00000200: 25e1 2abe 9a08 223e 006a 003e a421 c33c
00000210: caf8 a8bb 842d d23d 9c64 a5be b323 8cbe
00000220: 4131 9ebd 4c99 0e3e 9d6b 993c d93a 243e
00000230: 4051 c2bc 8ae8 5c3d 1eec 0b3e b5ee df3c
00000240: d652 a3be 252d 8fbd 1dca d43d 171d fcbc
00000250: 277b b83e 1bce bfbe 5558 babe 4669 06bf
00000260: daa6 00c0 648a 573c cb2a bf3d 72d4 a33d
00000270: 9e1c 0d3e 5172 b93d c04d 78bd 1fbb 09bd
00000280: edab 93bd 5916 3abd 622c 4d3c 46c3 303b
00000290: a86b 073e a6b7 f13d f84c 0c3e b76f 1c3e
000002a0: c60c c7bd bd39 e5ba c8f2 81bd b001 81bd
000002b0: 575c 333a 5101 a33c 314e b63c de44 ae3d
000002c0: 0dc9 003e bbc1 143e d5b8 91bd 0620 83bd
000002d0: 6e9f 36bd 710d e0ba 5241 a23d ee3f 0c3c
000002e0: eaa1 06ba 717b 9dbd 71a7 db3c b96c 843b
000002f0: cd3f a93d 6ef8 f73d f6a7 c1bd 562e 193d
00000300: 407b a03d 627c 443d 0082 8e3d 04df f6bd
00000310: 527a cabd 77d0 d53d 6199 6abc e8a2 42be
00000320: bbc1 683e 6658 7fbe ea29 a0bd 3982 35bd
00000330: 4b9c 52be e37e cc3d 0208 c2bd 2666 68bd
00000340: 7e23 7abe 0ee0 a0bd db62 fcbb b0b0 e53d
00000350: f23a 28be e3da dd3d 6b81 933d e510 2d3e
00000360: 9f58 81be abad d63d b52a 10be 0f58 e4bd
00000370: 7c32 1b3e 3765 f7bb ea36 c93d 8e80 7ebd
00000380: 3ffa a83d 2431 343d 58ae 30bc 1dcf 113d
00000390: 8c59 1d3e 318a 823d ee37 193e 89ad 11bd
000003a0: 4d6a 923d 0ecf 153d aa95 0bbd 38ca e4bd
000003b0: a525 fabd 2df6 ea3d 11fd 423e 9139 0c3e
000003c0: d986 1a3d 8686 5d3d 51f9 153e 25a0 353d
000003d0: 4b8f cc3d 652a 0b3d aa9c 72bd 0f62 9f3e
000003e0: 6ce0 573e dac3 b1be cb51 4cbe 4b49 7bbf
000003f0: 5011 8c3d 90b5 4dbb 213d 673d 71ce fc3c
-0.11354161 -0.05617518 0.044948753 -0.026469694 -0.016030006 -0.025326597 0.12132621 0.13458668
0.14054048 -0.17020181 0.037677392 -0.04221407 -0.036530335 -0.052191 0.106027804 0.12592837
0.083680466 0.099268414 0.15659435 -0.059005555 -0.052513707 -0.0064878096 -0.03976243 -0.015525704
0.17865726 -0.61131275 0.17382123 0.26886705 -0.014949153 -0.8890236 -0.16958238 0.08943472
0.028590605 0.077559754 -0.08902353 0.03564884 -0.024274467 0.033931997 0.06823346 0.10997069
0.04106026 0.117407896 -0.17316741 0.009153744 0.01590485 0.037376612 0.13334377 -0.032550193
0.015558609 0.013597666 0.05016257 0.058538586 -0.21330827 0.009211873 0.0057074255 0.028056433
0.08888492 -0.2009427 -0.15064028 0.012157673 0.15211871 0.46755552 -0.030593297 -0.011530249
0.1658219 0.26206684 0.3481045 -0.15472044 -0.04355622 0.10455159 0.09834111 0.37456
-0.008411618 -0.01053755 0.0053788004 -0.23445992 0.15218017 -0.123741515 -0.09668021 -0.4952713
0.043291736 0.06560183 0.15337512 -0.22417904 -0.06093574 0.050857108 -0.16276884 -0.06806386
-0.2243965 0.067406505 0.012505151 0.037460607 -0.30314496 -0.5607571 0.1292656 -0.2210895
0.13245241 -0.1909181 -0.72532547 -0.070737876 -0.0765697 0.15969883 -0.30885938 -0.19241785
-0.3921083 0.051889338 -0.014572042 -0.15567386 0.011076998 0.26326445 0.041989643 0.03934656
0.1210066 0.28777364 0.037560698 -0.07075268 -0.027743816 0.12731156 0.061207257 0.026716713
-0.05695763 -0.0098582255 -0.1499848 -0.06029898 -0.018141814 0.07632373 -0.07458822 0.0522633
-0.16687448 0.15823594 0.12540436 0.023819752 -0.005156611 0.10262588 -0.3230332 -0.27370986
-0.07724238 0.13925666 0.018728072 0.16038074 -0.023720384 0.053932704 0.1366429 0.027335504
-0.31899136 -0.069910325 0.103901125 -0.03077559 0.36031458 -0.37461933 -0.36395517 -0.52504385
-2.0101838 0.0131555535 0.09334334 0.07999505 0.13780448 0.09055007 -0.060621023 -0.03362572
-0.072105266 -0.04543147 0.012522789 0.002697186 0.13224661 0.11802606 0.13701236 0.15276991
-0.09719233 -0.0017488521 -0.06345135 -0.0629915 0.0006842068 0.019898089 0.022254081 0.08509229
0.12576695 0.14527027 -0.07115332 -0.06402592 -0.044585638 -0.001709385 0.07922615 0.008560164
-0.00051358214 -0.0768956 0.02681324 0.004041281 0.08264122 0.12107931 -0.09455864 0.037397705
0.07836008 0.047970183 0.06958389 -0.120542556 -0.09886612 0.10440152 -0.014318795 -0.19007456
0.22730152 -0.24936065 -0.078204945 -0.044313643 -0.20567434 0.09985139 -0.094741836 -0.05673804
-0.24427602 -0.07855235 -0.007702214 0.11215341 -0.16428736 0.10832765 0.07202419 0.16900976
-0.25262925 0.10482343 -0.14078791 -0.11149608 0.15155977 -0.0075499075 0.09824927 -0.062134318
0.08250856 0.043992177 -0.010783754 0.03559791 0.1536619 0.06374014 0.14962742 -0.035565887
0.071491815 0.036574416 -0.034078278 -0.11171383 -0.122142114 0.114727356 0.1904185 0.13693835
0.037726257 0.05408337 0.14645888 0.04434218 0.099882685 0.033975977 -0.059231438 0.311295
0.21081704 -0.34719735 -0.19953077 -0.9815871 0.068392396 -0.0031388737 0.05645478 0.030860158

fc1.bias f4 [64]
00000000: 377a 163c 43a2 19be 31ba 7b3d 9dc4 383d
00000010: 98dd 99bd 053b 593c 8539 eabd 1456 bf3d
00000020: 70eb c5bc e3cd 3f3e 6eb9 4f3d 2ee8 acbd
00000030: 73c2 5ebd c928 f7bb ec20 90bc a4ee f63c
00000040: 4d15 34be 82b8 bb3a 74d2 60bd ad49 013e
00000050: 0875 5c3e 6370 c93d 8af9 5dbd 1d05 393d
00000060: b535 1dbe 6e9b 12be 229a 6f3c 23f7 06be
00000070: e92e 1b3d 3d09 683e d79a 5c3c 3b90 6e3d
00000080: ee35 f0bd e9fa 103d 031b fa3c 5bf2 66be
00000090: 9ca1 00be b511 8f3d ab84 fbbc 17e8 b23d
000000a0: 307e 9fbd d36e 023e 52bf 8b3d 47c5 0a3e
000000b0: 3b77 e43d 3358 6b3c 8bba bb3c c68e 3a3e
000000c0: bc32 9a3d 4801 36be 9238 063e ba88 2a3d
000000d0: e9f9 783d b98c 823c 16af 063d 3fe8 9d3d
000000e0: a22f 6a3d b752 263e e72c f9bd eec7 77bd
000000f0: 515d de3d decb db3c 5e27 b23d f7a7 013e
0.009184412 -0.15003304 0.061456863 0.04510938 -0.07512969 0.0132587 -0.11436752 0.0934259
-0.024160117 0.18730883 0.05071395 -0.08442722 -0.05438466 -0.0075427038 -0.017593823 0.03014309
-0.1758625 0.0014321955 -0.054888204 0.12625761 0.21529019 0.09835889 -0.054193057 0.045170892
-0.15352519 -0.14317104 0.0146241505 -0.13180213 0.037886534 0.22659774 0.013464651 0.058243018
-0.11729036 0.035395537 0.030530458 -0.22553389 -0.12561649 0.06985799 -0.03070291 0.08735674
-0.0778774 0.12737589 0.06823601 0.13551818 0.11155554 0.01436429 0.022916099 0.18218526
0.07529208 -0.17773926 0.13107517 0.0416343 0.060785208 0.015936242 0.03288182 0.07710313
0.057174332 0.1624249 -0.121667676 -0.060493402 0.108576424 0.02683061 0.08698915 0.1266173

fc2.weight f4 [64, 64]
00000000: 4143 75be 61bd 1d3d 1e0f 033d 8424 26bd
00000010: cf7b f83e 3ea5 bbbc a4e1 a63d 00b4 82bd
00000020: d0f7 32bc d839 1fbd f771 27bd 3a33 63bd
00000030: c335 993d 5f3b 05be 2d0a 15be d64e 36ba
00000040: 09cb 913c aacc 0bbe d204 a5be 983d a33d
00000050: 70c0 9cbd 0c87 563c 251d 4d3d 277b 0c3c
00000060: b5c8 363d 4e02 4f3b efed a0be 74bf e73d
00000070: af78 e1bd e142 82bc 3e5c 753d b31a 5b3d
00000080: 689b f9bd b270 bd3c cbb0 9ebe 022d ae3d
00000090: 4d77 99be ab82 74bd 5592 5abe 4d20 c03e
000000a0: 5d01 8f3d 0bc5 9c3d 094c 153d 95c4 10be
000000b0: 19bd 5c3e 6ff2 a13c bad1 b8bd 5a79 3dbd
000000c0: 2d0d 5c3d 13bc 8dbd c570 e23e 30ed f0bd
000000d0: f749 373d 6cd0 b53d 9985 213d 6ec9 b5bd
000000e0: 0b4d 84be d53e a5bd 1b66 0bbd 5ccd 173d
000000f0: b14a 99bd 2a23 e4bd fc25 cb3b a1d8 56be
00000100: 8d1f c3be 1293 d63d 6cf6 9abd bfeb 98bd
00000110: 84c3 92bd 0512 a7bd 64c6 3dbc e67b 993d
00000120: 6fa9 0c3e 39ee ed3c 2910 4ebe 5686 61be
00000130: f155 95bd 65c3 bbbd 301e a4bd 48ba 75be
00000140: 7c4c d83d 205b 48be af79 f3bd 08e2 85be
00000150: 9fa9 66bd 687e 2ebe 5026 c63d 79ee d0be
00000160: 80a0 75be caeb 6cbe e609 20be 08d7 eb3d
00000170: e9ea 52be d6b7 833b 4d90 c73d 399b 53bd
00000180: d0d1 a9bd fccf f83d 3cb2 0dbe 9298 103e
00000190: bd7d 99bd f225 ed3d 3feb 96bd 45fb 25bd
000001a0: 87c8 cc3d c48c d1bd 6cae f23d 4d80 02bf
000001b0: 4f25 8a3d af04 6e3e 8695 953d c4ec 913d
000001c0: 73d4 06be 0b58 6ebe 5dcd 1c3e 710d 8e3c
000001d0: 08cb aabd 1fe8 b5bc ec5a 12be 5fe3 803c
000001e0: d02d a63c 1039 263d a6a5 803e cd70 f43d
000001f0: 7954 72be 43a4 1b3d f43d d1be e619 14be
00000200: a165 443d 8b8c 7dbe 60b4 913d 2f29 363e
00000210: f945 72be 9652 15bf 4df2 5abe 2095 b6be
00000220: 4682 683e 0326 22bd 28a9 603d d398 41bf
00000230: 04cd 34be 165f 203d cd53 cebd bd23 803d
00000240: e7f3 2dbf 7843 bdbe 3f50 1abe 411d 5c3e
00000250: 8a4e 173e 8cd4 973d 9633 59be 363c 063e
00000260: d46c 3c3c 5d30 b4be e172 a0bd 428e 6a3d
00000270: 4b51 95be 7858 3c3d d2f5 19bf 50da 29be
00000280: 16e5 963e 6ddd 83be 817a d6be ea1d 31be
00000290: 52af 463e 4d96 80be fb7e 59be 3165 683e
000002a0: e6a2 bbbe 9af6 473d 0785 b5bd 879b 6b3e
000002b0: 1a70 ac3e 007c f1be 2389 cbbe ed55 2ebe
000002c0: 0730 173e ab88 253d 53a3 bebd 3d1d 2fbe
000002d0: aafc d3be 0bfb ec3d 2b42 64be 9a99 273e
000002e0: 3db1 0cbe 9590 7f3e 8cbb d73e 8961 06bf
000002f0: 2fd4 92be 46c2 30be d911 323d d5ce b73e
00000300: 9982 8f3d 048c cfbd 2f4d fa3d 2876 a4bd
00000310: 6cb5 76be b18d fabb b256 3f3e 1014 a9bc
00000320: 7aae 04bd bf6e e53c 7cd9 c23c be26 043c
00000330: a755 95be 48a9 303d 0ac3 b6bd 945c d93c
00000340: 5939 3e3d 2a81 c73d fe8f a33d 9ea7 09be
00000350: a015 36bd b744 f3bd 1764 3abe c7f7 b53d
00000360: c9b2 f6bd 3fa5 17bd 9a16 1d3d 6881 ce3d
00000370: fd70 443d 4171 c2bd 7d97 debd 6be6 fd3d
00000380: 4eac ec3d 883f a83d f1fe 3cbe 9407 663d
00000390: 682e 0abe 340a 3e3d 72bf 0cbe 5e18 f7bd
000003a0: aaa2 13bd fd17 253e b226 353d 84de 10bf
000003b0: 51ef 6b3e 03ac cd3c 6d55 43be f382 9d3d
000003c0: 72de a0be c659 debd 47af e73e 0b4c 0fbe
000003d0: e287 fc3d 696b 32be 40b6 d43d 72b5 8d3c
000003e0: 3679 503e 675b 10bc 90b2 7d3d 1613 febd
000003f0: 5443 0dbe 5549 8abd ca8a f63d 9a7c a33d
-0.23951437 0.038510684 0.03199684 -0.040562168 0.48531958 -0.022905942 0.08148506 -0.063819885
-0.010923341 -0.038873523 -0.04088017 -0.055468775 0.07480957 -0.1301093 -0.14554663 -0.00069544965
0.01779701 -0.13652292 -0.3223024 0.079707325 -0.07653892 0.013093721 0.050076623 0.008574284
0.044625003 0.0031587067 -0.3143153 0.11315814 -0.11009347 -0.015901031 0.059902422 0.05349226
-0.121878445 0.023125026 -0.30994257 0.08504678 -0.29973832 -0.059694927 -0.21344884 0.37524644
0.06982682 0.076547705 0.036449466 -0.1413749 0.2155651 0.019768922 -0.09024377 -0.046258308
0.053723503 -0.06920638 0.4422666 -0.1176399 0.044748273 0.08877644 0.03943405 -0.0887631
-0.2584003 -0.08068625 -0.034032922 0.03706108 -0.074849494 -0.111395195 0.0061995964 -0.20981075
-0.3811001 0.1047727 -0.075665325 -0.0746684 -0.07166198 -0.08157734 -0.011582945 0.07494335
0.13736509 0.029044257 -0.20123352 -0.22023901 -0.07291783 -0.09168128 -0.0801357 -0.23996842
0.10561463 -0.19566011 -0.11888444 -0.2614901 -0.056314107 -0.17040408 0.09675276 -0.4080694
-0.23987007 -0.23136821 -0.15628776 0.11515623 -0.20597424 0.0040197177 0.0974432 -0.051661704
-0.08291972 0.12149045 -0.13837522 0.14120701 -0.07494686 0.11579503 -0.073690884 -0.040522832
0.09999185 -0.10231927 0.118496746 -0.5097702 0.06745397 0.23243974 0.0730391 0.071252376
-0.1316698 -0.23275773 0.15312715 0.017340394 -0.083395064 -0.02220541 -0.14292496 0.015733419
0.020285517 0.040581763 0.2512638 0.119355775 -0.23665036 0.03799845 -0.4086758 -0.14463004
0.047948483 -0.24760644 0.07114482 0.17789148 -0.23659505 -0.5832914 -0.21381493 -0.35660648
0.22705945 -0.039587032 0.05484882 -0.75623816 -0.17656332 0.03915318 -0.100745775 0.062568165
-0.6795029 -0.36965537 -0.15069674 0.21495534 0.14776054 0.07413587 -0.21211085 0.13108906
0.011500556 -0.35193148 -0.078344114 0.057264574 -0.29163584 0.045982808 -0.6014072 -0.16587186
0.29471654 -0.25754872 -0.41890338 -0.17296568 0.19402817 -0.2511467 -0.21239845 0.22694851
-0.3664772 0.048819162 -0.088632636 0.23008548 0.33679277 -0.47164917 -0.39753065 -0.17024966
0.14764415 0.04041354 -0.093084954 -0.17100997 -0.41403705 0.1157132 -0.22290866 0.16367188
-0.13739486 0.24957497 0.42135274 -0.52492577 -0.28677508 -0.1726161 0.043474052 0.35899988
0.070073314 -0.10134128 0.12221753 -0.08030349 -0.24092644 -0.0076462855 0.18685415 -0.02063945
-0.032392956 0.02800691 0.023785345 0.0080658775 -0.2916691 0.04313019 -0.089239195 0.026533403
0.04644141 0.09741433 0.07986449 -0.13442847 -0.044454217 -0.11878341 -0.18202244 0.088851504
-0.12045819 -0.037022825 0.038351633 0.10083276 0.047959317 -0.09494258 -0.10868738 0.12397464
0.11556302 0.082152426 -0.18456627 0.05615957 -0.13494265 0.04639645 -0.13744906 -0.120651945
-0.0360438 0.16122432 0.044226356 -0.5658953 0.2304051 0.025106436 -0.19075556 0.07690992
-0.31419712 -0.10856967 0.45250914 -0.13993852 0.12330605 -0.17423786 0.10386324 0.017298434
0.20358738 -0.0088108545 0.06193787 -0.12405984 -0.13795215 -0.06752268 0.12038191 0.0798275

fc2.bias f4 [64]
00000000: 2085 583e 7348 febd 1b7d 17bd 7e9a d53d
00000010: ecb5 7bbd 69dc b8bb 481a 6fbd 5b66 6dbd
00000020: 555c 513e 59c5 5abc 485b 023e 943b 9bbd
00000030: a737 463d f1ab afbd f637 e4bc 4031 fd3d
00000040: e7d1 a33d 4e47 aa3e 1235 16be bde7 2b3c
00000050: e35f 1d3d e31d d63e 6a9d bfbd f9ae 103d
00000060: 835a 52be 88cb a63e f9b0 753c b9a1 a33c
00000070: b121 223e 9253 cc3a 2f79 43bd a5c8 173d
00000080: 7f43 603e ec95 0f3e e168 5d3e 9f17 503d
00000090: c6ab 13be b8b5 58bd a52f f9bd 2dcc 85bd
000000a0: dd83 47be a4d8 d73e c7bb c8bd 8b01 293e
000000b0: f7ea 67bd 041b ee3d 3fbb 13be f25f c53e
000000c0: 5886 95bb 5bdd 2b3e fbab 41be 3ed9 debd
000000d0: cfb5 8bbd 7c89 803c 21eb bbbd 12d6 243d
000000e0: 70df 833d 9a30 a5bd 896f 853d bf08 8f3e
000000f0: 5a12 b13e 78b1 a83d be4c ab3e 51d6 7f3d
0.21144533 -0.12416162 -0.036984544 0.10429858 -0.06145279 -0.0056415093 -0.058374673 -0.057958942
0.20445378 -0.013352715 0.12730134 -0.07579723 0.048392918 -0.08577717 -0.027858716 0.12362909
0.0799902 0.33257526 -0.14668682 0.010492262 0.038421523 0.41819677 -0.09356196 0.035323117
-0.2054234 0.32577157 0.014995807 0.019974576 0.15833165 0.0015588871 -0.04772299 0.037056584
0.21900748 0.14022034 0.2162204 0.050803777 -0.14420995 -0.052907676 -0.121672906 -0.06533084
-0.19483896 0.4215747 -0.09801441 0.16504495 -0.056620564 0.116262466 -0.14426897 0.38549763
-0.004563134 0.16783659 -0.18913262 -0.108812794 -0.068217866 0.015690558 -0.09175707 0.040243216
0.06439102 -0.08065911 0.06515414 0.2793636 0.34584314 0.082369745 0.33456987 0.062460247

fc3.weight f4 [4, 64]
00000000: e8bd 983e a8f2 d8bd 8f7c 18bf 3fd7 013e
00000010: 6333 c1bc 932b 93bd fa80 b43c 80ae 2a3e
00000020: e651 6f3d 32c2 c93e b075 8a3e 9088 dd3d
00000030: d07d c23e 0c9e 5f3d 99fe e4bd c279 af3e
00000040: cd82 ce3d e068 703e 1b3f afbe 502b 033e
00000050: c594 1f3e d181 493e d387 13be 4e00 b73e
00000060: ade0 81be e944 8a3e 1a05 ba3d 1dd6 613d
00000070: ec52 74bd df8e 8d3e f8e7 a7be 64a2 953e
00000080: d006 0c3e daec bc3d ea4e 173e 0c97 ca3e
00000090: 619c 393d 9d28 b33d c2cf fbbc 196c 143e
000000a0: 5350 83be a931 473e c6c5 a2bc 0395 213e
000000b0: 73de b83e d526 623e bca2 68bd 2e85 323e
000000c0: c658 503e 444b e13d 69d2 65bc 50b6 0ebe
000000d0: 92d8 4ebe 3b2a aa3e e260 cfbe 70b6 9c3c
000000e0: fa3d 08bf bb4f 5cbe 9b9c 7b3e 2f47 fc3d
000000f0: 70a8 91bd 51b7 253e 0745 5e3e a5a4 843d
00000100: 1967 1d3e 052f 12be 34d8 753d 7d0f db3d
00000110: 4e60 76be 1ddb 763c a634 223d 6538 573e
00000120: f38f 503e 7fd7 d63e a03d 353e 6c0a 383e
00000130: f787 9fbd 19ef 6a3e 0f18 04bf 1dcd fc3d
00000140: 7170 433e 56c7 573e d4fc 3cbe b52f 4b3e
00000150: bfca 9f3e e3de 433e 2167 cabd 11a3 093e
00000160: c76f 1bbe 490e 383e bd01 f43c 1ed1 18be
00000170: 54bf 033e 207c 7b3e 2cfc 75be a535 d13e
00000180: 6cf2 223e f464 c43d 8555 003e c9a3 9b3e
00000190: b08f cebd e104 17bf be42 4abe 2084 c03e
000001a0: 86e8 edbd 4568 a83d 63cc 8abd 27b9 633e
000001b0: 1cb9 be3e 62cd 243e 4458 dcbc a058 d63d
000001c0: b327 aa3e a837 083e c64a 403e 8d8c 883c
000001d0: 7820 2bbe 2c9e bb3e 4c68 36be 0103 463d
000001e0: cc05 1c3d 6ede 27bc efec d33d 3727 e53d
000001f0: 99c4 a73d 95dd 533e a5ae 403e 1b7b e43d
00000200: 97ea 5e3e 92e5 9ebd 460d 99be 0cfd 5f3e
00000210: 0dd5 64be e815 94be 4076 5abe c995 71bd
00000220: d214 6abd 305c d03e c59a 6fbc 1135 a63e
00000230: 49fd 793e 4e80 26be beb3 38be 576f b93d
00000240: 4d8f 313e 0476 853e 0871 cebe d6bf 93be
00000250: 64cf 34bd 5be4 0c3e 368b 373e 71b7 a2be
00000260: a87c 7abe 0582 683e f310 053e 462f 873c
00000270: dbc8 a53c ecfc 653e f76e 5bbe 380d d83e
00000280: d7d2 443d 4539 213e 9d36 473e 5d3e 7f3e
00000290: 6ac1 39be cd84 c43c 0f07 a4be b59e a5be
000002a0: a8ae 21be 7051 523e bfe5 f33d 1254 253e
000002b0: 61fa b93e 6953 953e 6c88 54bd 1f42 263e
000002c0: 7904 fb3e 4bd1 ae3d ca1d 833d d682 f6bc
000002d0: 2c70 c4be 790c e13d 2eb0 8fbe a903 a73e
000002e0: 4891 123d 784d d83c d29f 203e a6aa 893c
000002f0: d66b 533e 86d9 3f3e 2302 ec3d c133 fd3e
00000300: 8f57 e33d db55 783e 3e76 8abd 1e16 f53d
00000310: f0b2 1abe ddbb a8bd d435 813e cdb7 9c3e
00000320: b89c 123e 729d c53e c5b2 a33e 9540 2ebc
00000330: 7220 723e 6d1f 1cbe dab8 c1be 9dec 2fbb
00000340: 81f9 683e 66dc 8b3e 2caf dabe 502b 003e
00000350: 6472 763c cc56 3e3e 516d 9abe 2888 c93d
00000360: 72d8 9cbe c402 3a3e 9a9f a13e 586d 393e
00000370: 5a2b 1f3e 96f9 e33c 71fb 74be 9e05 d9bd
00000380: 98de 113e ba11 93b9 7d31 ec3d 79c2 a73e
00000390: 8006 98be d8da e53e 6d8f 7dbe 3cfa 803e
000003a0: 9e72 443e 6b18 f53d 8b67 18be 1b90 2c3e
000003b0: 9e68 9e3e 344c 413e 98d0 183d fb27 443e
000003c0: 4088 52bd 1545 683e c0d0 05bf 435c 2cbd
000003d0: a2d8 17be 5808 cc3e ea6b 97be e82a 0c3e
000003e0: c663 f5bd 667c 01bf 33b1 653d 3841 263e
000003f0: f664 843e bb55 bd3e 7986 003d 8700 b03d
0.29832387 -0.10593158 -0.5956506 0.12679766 -0.023584073 -0.071860455 0.022034157 0.16668129
0.058427714 0.39405972 0.27042913 0.10817063 0.37986612 0.054594085 -0.11181373 0.3427258
0.10083542 0.23477507 -0.34227833 0.12809491 0.15584095 0.19678427 -0.14407282 0.3574242
-0.25366727 0.270057 0.09083004 0.055135835 -0.059649393 0.27648064 -0.32794166 0.29225457
0.13674474 0.09224863 0.14776197 0.39568365 0.04531515 0.08747981 -0.030738715 0.14494361
-0.2564722 0.19452538 -0.019869696 0.157795 0.36107215 0.22085126 -0.05679582 0.17433617
0.20346364 0.11000684 -0.0140272165 -0.13936734 -0.20199803 0.33235344 -0.40503603 0.019129962
-0.5321957 -0.2151479 0.24571459 0.12318265 -0.07112205 0.16183211 0.2170602 0.06476716
0.1537136 -0.14275749 0.06002064 0.106963135 -0.24060175 0.015066889 0.03960099 0.21017607
0.20367412 0.41961285 0.1769929 0.17972726 -0.07789605 0.22942771 -0.5159921 0.1234381
0.19085862 0.21072134 -0.18455821 0.19842418 0.3120937 0.19127993 -0.098829515 0.13441111
-0.15179358 0.179742 0.029785985 -0.14923522 0.12865955 0.24559069 -0.24021977 0.4086124
0.15912789 0.09589568 0.12532623 0.30398396 -0.10086 -0.5899182 -0.19752023 0.37600803
-0.11616616 0.08223013 -0.06777265 0.22238599 0.37250602 0.16093972 -0.026897557 0.104661226
0.33233413 0.13302481 0.18778524 0.016668582 -0.16711605 0.36644113 -0.17813224 0.04834271
0.038091466 -0.010245902 0.10347926 0.1118912 0.08191795 0.20689996 0.18816622 0.11156293
0.21769176 -0.07758631 -0.2989294 0.21873873 -0.22346897 -0.28922963 -0.21334171 -0.058980737
-0.057148762 0.40695333 -0.014624302 0.3246236 0.24413027 -0.16259882 -0.18037316 0.090544395
0.17339821 0.260666 -0.4032061 -0.28857297 -0.044143096 0.13758986 0.17924199 -0.3178058
-0.24461615 0.22705849 0.12994747 0.016502034 0.020237377 0.22459763 -0.21429048 0.42197585
0.048052635 0.15744503 0.19454427 0.24926133 -0.18140188 0.023989106 -0.32036635 -0.32347646
-0.15789282 0.20538878 0.11909055 0.16145352 0.36323836 0.291652 -0.051887915 0.1623616
0.4902685 0.08536013 0.06402166 -0.030091684 -0.3836683 0.10988707 -0.28064102 0.3261998
0.035783082 0.026404127 0.15685967 0.016805004 0.20646605 0.18735322 0.11523845 0.49453548
0.11100685 0.24251501 -0.06760834 0.11967109 -0.15107322 -0.08238957 0.2523638 0.3060898
0.14317596 0.38596684 0.31972328 -0.010635515 0.2364519 -0.15246363 -0.37836343 -0.0026843913
0.22751428 0.27316588 -0.4271177 0.12516522 0.015041921 0.18587798 -0.30161527 0.09840423
-0.30633885 0.18165118 0.3156708 0.18108118 0.15543881 0.027828973 -0.23924042 -0.105967745
0.14245069 -0.00028051232 0.11532877 0.32765558 -0.2969246 0.44893527 -0.24761744 0.25190914
0.19184348 0.11967548 -0.14883249 0.16851847 0.30939192 0.18876725 0.037308306 0.19155876
-0.05139947 0.22682603 -0.5227165 -0.042080175 -0.14828733 0.39850116 -0.2957452 0.13688242
-0.11981921 -0.5058044 0.056077193 0.16235816 0.25858277 0.3697947 0.031378243 0.085938506

fc3.bias f4 [4]
00000000: e969 473e 8624 3e3e 0ead 5f3e ed5a 023e
0.19473995 0.1856862 0.21843359 0.12729998
