model_weights_275_solved.pth (torch, 30258 bytes, 6 tensors)

fc1.weight f4 [64, 37]
000000 a1 20 15 bd c8 b1 b1 bd 76 83 93 3d 3f ef 8e 3e
       -0.03640807 -0.08676487 0.072028086 0.27916905
000010 f4 92 c9 3e 4b b2 97 bd a2 15 84 3d 15 05 88 3d
       0.3936993 -0.074070536 0.06449439 0.06641594
000020 2c a8 7f 3d c3 fb fa 3d 42 7b 3c 3d d8 78 7b 3c
       0.06241624 0.12255051 0.046015985 0.015348636
000030 23 5e bd 3d f3 36 90 3e cb b5 4a 3c 1f 45 b4 bd
       0.09246471 0.28166923 0.012372444 -0.08802246
000040 18 53 93 bd 8a f7 71 3d f0 93 f8 3d 0d a3 71 3e
       -0.07193583 0.059073962 0.12137592 0.23597355
000050 79 43 06 3d 4c 08 f4 3d 21 45 0c bd 9c 21 1f be
       0.03277919 0.11915645 -0.034245614 -0.15540165
000060 bf f0 dc be 1b d9 4b bd 5a 58 08 bd 31 7e 42 3e
       -0.43152425 -0.049767595 -0.033287384 0.1899345
000070 51 99 34 3e 66 6a 82 3e 4c ab 1b be df 8b 97 3d
       0.1763661 0.254718 -0.15202063 0.07399725
000080 78 bd e1 3d 34 c8 17 3e f4 a5 eb bc 99 f6 17 3d
       0.110224664 0.14822465 -0.028765656 0.03710041
000090 ef 2d 2a bc 26 77 ec 3d 08 9d bb 3b 90 f8 57 bd
       -0.010386928 0.11546163 0.0057255067 -0.052727282
0000a0 dd cd 43 3c cf 0c 9d bd 9c 7e a2 bd 98 c5 6e 3d
       0.011950937 -0.07668459 -0.07934305 0.05829391
0000b0 e7 4a 07 bd 80 01 9c 3d 90 27 86 3e 1f 39 01 bd
       -0.033030417 0.076174736 0.2620206 -0.031548616
0000c0 f4 4a b2 bd 0a d4 38 bd b8 91 5a bd 56 68 06 bd
       -0.087057024 -0.04512409 -0.053361624 -0.032814346
0000d0 fc f8 32 3e be b9 51 3c 23 cd 6d 3c 9c c2 56 bd
       0.17477793 0.012800632 0.01451424 -0.052431688
0000e0 13 2d 19 bf 4e 7e 75 3e 35 78 2d 3d d1 77 44 bd
       -0.598344 0.23973963 0.042350966 -0.04796583
0000f0 a6 86 e5 bc d0 af cf be ff b2 3e 3e b1 78 29 3e
       -0.028018307 -0.40563822 0.18622969 0.16549946
000100 9c 15 b3 bb 26 87 5a bd 0d 80 33 be 88 d4 d7 3d
       -0.0054652225 -0.053351544 -0.17529316 0.10538584
000110 36 c6 0a bd c8 e3 e5 bc 2f 56 1c 3e 7c d9 02 3e
       -0.033880435 -0.028062716 0.15267251 0.12778276
000120 89 b1 fb bb 02 15 56 bb f0 5d 58 bd 17 74 bf bc
       -0.007681076 -0.003266633 -0.05282396 -0.023370786
000130 45 30 76 be 4d 43 df 3c a9 8a 89 bd b9 8b 64 3e
       -0.24041851 0.027253771 -0.067159005 0.22318925
000140 46 d4 ea bd 06 ac 2d be 09 ac ad be 90 84 6a bf
       -0.11466269 -0.16960153 -0.33920315 -0.91608524
000150 b2 57 8c bd f6 84 c3 3d c7 63 11 3d 19 d0 b1 3c
       -0.06852664 0.09546845 0.035495546 0.021705674
000160 1f d4 10 3c 86 6d 0a bc 7b bb 58 3c 77 f2 70 be
       0.008839636 -0.008448964 0.013228293 -0.23529993
000170 7d 79 09 be 22 f4 b3 be 58 e5 c0 bd 56 60 db 3d
       -0.1342525 -0.35147196 -0.09418744 0.10711734
000180 5f 27 b7 3d 74 c4 d6 bd 50 58 38 3e 6e 5c 01 3e
       0.08943056 -0.10486689 0.18002439 0.12632915
000190 b1 b4 01 be 9c 28 02 bc d4 0a 80 3e ba 1d fa be
       -0.12666585 -0.007944252 0.2500826 -0.48850805
0001a0 2f 72 b7 3d fa d7 85 bd bf f1 79 bd 04 7c 90 3d
       0.08957326 -0.06535335 -0.061021563 0.07054904
0001b0 2e 97 d8 bd b9 bc 91 3c ae 08 c0 3b 99 64 bf bd
       -0.1057571 0.017790185 0.0058604097 -0.09345359
0001c0 ca 33 b4 bd 9a eb 48 bd 8a 89 37 3d f4 e1 b6 3d
       -0.087989405 -0.049052812 0.0448089 0.08929816
0001d0 e4 09 ce 3d 56 df 8e 3d 99 f1 17 3e 09 4c 12 3e
       0.1006048 0.06976192 0.14838256 0.14286818
0001e0 67 5b 12 3c 64 46 c9 3e 0e 36 3a bf d9 4e b8 be
       0.008932925 0.39311516 -0.7273873 -0.35997656
0001f0 1d 5f 22 be 31 7a ca bf 58 6f 62 bd d1 24 12 3d
       -0.15856595 -1.581854 -0.055281967 0.035679642
000200 60 0d 6b bc c0 00 bd bd 9c 08 79 3d d1 e5 66 bd
       -0.014346451 -0.09228659 0.060799226 -0.056371514
000210 6a 99 51 3e 0a 41 64 bd 73 6a 04 be cc 68 89 be
       0.20468679 -0.05572609 -0.12931232 -0.26837766
000220 2a 39 ab bc 79 ed de 3c dd 01 32 3d 63 99 03 bd
       -0.020901281 0.027212845 0.04345881 -0.032128703
000230 97 d9 64 bd 5f 55 e3 3c 50 04 54 3d 8b 15 13 3e
       -0.055871572 0.027750669 0.051761925 0.14363687
000240 c1 73 32 3e 7c b8 d6 3d ab 24 6e bc e2 c6 c1 38
       0.17426969 0.10484406 -0.0145351095 9.240002e-05
000250 02 71 91 bd ae 46 5a be 10 47 92 be 0d 8a ac 3d
       -0.07101633 -0.21316025 -0.2856984 0.084247686
000260 5b 41 b4 3c f8 9c 89 be 80 77 df 3d 5a db f1 bd
       0.02200382 -0.2687757 0.10911465 -0.11809416
000270 a5 c4 ee 3c 84 55 0f ba cd a7 6a 3e df 09 b2 bd
       0.029146502 -0.000546776 0.22915573 -0.08693289
000280 50 ff 02 bf 05 93 5b be 9e be 95 be ee ee 36 3c
       -0.51170826 -0.21442802 -0.29246992 0.011165364
000290 bd 06 86 bc 3a 01 14 bf 68 6d d3 3d 68 c7 06 3e
       -0.016360635 -0.5781437 0.10323602 0.13162005
0002a0 55 34 6c 3e 99 90 df be 3f e5 25 be cf a3 ed be
       0.23066838 -0.43665007 -0.16200732 -0.4641404
0002b0 de 95 34 bf 2d 06 ec be 02 ed a0 bd 97 b3 29 bc
       -0.7054118 -0.46098462 -0.07857706 -0.010357759
0002c0 34 36 05 3d 6e ee bc bc c7 2b 65 be 21 60 5c 3e
       0.032522395 -0.02306291 -0.22379981 0.21521045
0002d0 b9 68 3c bd 1d 42 1a bc b0 fc d6 bd 2d 20 67 bc
       -0.04599831 -0.009415177 -0.10497415 -0.014106792
0002e0 e5 2e 8a 3c fd da 37 3d fc 00 1d be 4e 99 84 3c
       0.016868064 0.044886578 -0.15332407 0.016186383
0002f0 13 70 61 3d 12 14 d5 bc c1 16 a2 bd da 9d a8 bd
       0.055038523 -0.026010547 -0.07914496 -0.08233233
000300 f6 ca ed 3c ed d2 b3 bd aa d1 49 3d 95 7b 9d 3e
       0.029027443 -0.08780465 0.049272217 0.30758348
000310 33 25 ef bd b1 35 5d be 53 d1 6f bd ed 24 eb bd
       -0.11677017 -0.21602513 -0.058549237 -0.114816524
000320 95 c6 2d 3e 1d f7 f0 3d cb 20 cb 3d 6e dc 55 3b
       0.16970284 0.11765883 0.09918364 0.0032632607
000330 10 9b d4 bd 48 7e 5e 3e 40 ae c2 be 8a d9 26 be
       -0.10381138 0.2172786 -0.38023567 -0.16293922
000340 e4 6c 04 be 90 bb b5 3e 45 fc 30 be ca b4 42 3e
       -0.12932163 0.3549466 -0.17283733 0.19014278
000350 02 86 54 bc 2a d9 c3 3c 90 47 87 bd f1 17 d7 bd
       -0.012971403 0.023907263 -0.06605446 -0.10502613
000360 c2 66 25 be a9 7a c5 bd 82 e4 5b be 8e 22 b7 bc
       -0.1615248 -0.09642536 -0.21473888 -0.022355344
000370 c9 79 94 3c 20 bf 60 b9 d1 7a 4b bd 53 4e 12 3d
       0.018124478 -0.00021433504 -0.049677674 0.035719227
000380 3d 03 b1 3c b0 3d a4 bd 46 e2 50 bd 6d 21 87 3d
       0.02160799 -0.080195785 -0.05099704 0.06598172
000390 82 bf 21 be 9d ba 6c 3d 0b 5f 16 bf d0 20 8d bf
       -0.1579571 0.057795156 -0.58738774 -1.1025639
0003a0 e9 f7 da bd 5c ca 12 bd 92 b7 bf bc 45 bc 58 bd
       -0.10691816 -0.035837516 -0.023402963 -0.052913923
0003b0 2a 0a 0a 3e 87 37 e9 bd 91 54 60 bd 26 e0 0d 3e
       0.1348044 -0.11387544 -0.05476815 0.13855037
0003c0 d1 3f 42 be 2e 4e 05 be b7 41 10 be f6 cc 9b be
       -0.18969657 -0.13018104 -0.14087568 -0.3042981
0003d0 73 3e 9e bd 1d f2 9c 3b 2c 07 ba 3d 2a 60 93 bd
       -0.07726755 0.0047896043 0.09083399 -0.07196076
0003e0 25 20 16 be d3 5b 49 3e bf 01 86 be 0e cb bb bf
       -0.146607 0.19663934 -0.26173207 -1.4671342
0003f0 a6 ce f8 ba bc 83 3d be e5 a6 31 bd 66 5d 9c bd
       -0.0018982484 -0.18507284 -0.043372054 -0.07635002

fc1.bias f4 [64]
000000 a7 36 1a be 43 de d1 3d be 56 21 be 3c a3 53 3d
       -0.1505991 0.10247471 -0.15755746 0.051669344
000010 c6 0c 5e 3e 91 78 63 ba 86 2f f1 bd 96 ef 30 be
       0.2168456 -0.00086773286 -0.117766425 -0.17278895
000020 13 4c 71 3d 00 c0 87 bd 17 4b 75 be 4a a0 a6 3d
       0.05891044 -0.06628418 -0.23954426 0.081360415
000030 ad 9b 2e be d0 27 c3 3d 6a 7b d1 3d 10 a6 6d 3c
       -0.17051573 0.09529078 0.102286175 0.014504924
000040 97 1b a7 bc 29 76 1a 3e 2c f6 df bd c9 4b 5f 3d
       -0.020398898 0.15084137 -0.109356254 0.054515634
000050 86 e8 47 bd d8 30 62 3d 2e a0 31 3d 61 0d dc 3c
       -0.048805736 0.055222362 0.04336565 0.026861848
000060 9a a3 45 be 68 1d 9c bd a3 ad 90 3c e0 a3 9d bd
       -0.1930069 -0.07622796 0.017660921 -0.07697272
000070 b6 d0 dd 3d 74 00 66 bd 7e ef 9e 3c bb dc 14 bd
       0.10830824 -0.056152776 0.019401308 -0.036343317
000080 a9 22 6b bd 0f e2 0b 3e 4d 4c e2 3d 9f c8 00 be
       -0.0574061 0.13660453 0.110497095 -0.12576531
000090 f4 f3 81 bd dd 03 53 3a b7 ba f1 bd 9f 55 a3 3d
       -0.063453585 0.0008049587 -0.11803191 0.07975315
0000a0 57 b1 81 3e 95 93 99 bd 2e b8 23 bd 97 5e ec 3d
       0.25330612 -0.07498852 -0.03997057 0.11541479
0000b0 4a ef e1 bd e2 6c 03 3e bf 53 83 3e 30 c1 d5 bb
       -0.11031969 0.12834504 0.2564983 -0.006523274
0000c0 42 d2 e0 3d d3 66 9e 3d 74 3e ed 3d 6a fb a5 bb
       0.109776035 0.07734456 0.115841776 -0.0050653713
0000d0 60 4d 15 3e 17 b6 87 3d c8 26 d6 3d 33 79 b9 3d
       0.14580297 0.06626528 0.10456616 0.0905632
0000e0 a7 0f f0 3c dc ba c0 bd 26 b0 72 be d8 3b 18 bd
       0.029304339 -0.094106406 -0.23700008 -0.037166446
0000f0 4f 24 93 bd 60 5c ed bd 64 db 52 3d ba 21 07 3e
       -0.0718466 -0.11589885 0.05147876 0.1319646

fc2.weight f4 [64, 64]
000000 d4 c4 10 3e 36 4a ae 3d 06 27 b5 3c 60 71 97 3e
       0.14137584 0.08510248 0.022113334 0.29578686
000010 30 4e 2d 3d 3b c8 0a be 27 c1 05 be 10 39 6c be
       0.042310894 -0.13552944 -0.13061963 -0.23068643
000020 b3 56 04 3e 05 9a 62 3d e3 fc 1e 3d 7d c8 54 be
       0.12923698 0.055322666 0.03881539 -0.20779605
000030 55 2f 49 3e 19 cf 0f be 0b 25 48 be 73 52 5d be
       0.19646962 -0.14043845 -0.19545381 -0.21613483
000040 aa 81 eb bb 66 41 04 3d 70 8b 92 bc 8b ff 17 3e
       -0.007187088 0.03228893 -0.017888755 0.14843576
000050 5d 98 f5 3d 17 d0 92 bc 56 d6 cc bc d7 df 1e bf
       0.119919516 -0.01792149 -0.025004547 -0.620603
000060 10 27 6d 3e d8 52 9b be 9c 57 85 3e 56 bf 9f bc
       0.23159432 -0.30336642 0.26043403 -0.019500416
000070 c7 2d 32 bd 50 59 7f bd 5d d6 be be bf 31 60 3b
       -0.043500688 -0.062341034 -0.3727292 0.0034209338
000080 63 96 a2 bd 41 81 1e bd ba 0d ac be 2a d6 88 be
       -0.0793884 -0.038697485 -0.33604223 -0.26725894
000090 b6 30 84 bc d2 81 f6 3c f5 fd 24 be c2 d3 13 bf
       -0.016136508 0.0300912 -0.16112502 -0.5774499
0000a0 16 2c 94 be 02 a8 af 3b 5f 2e e7 3c cf 1e 98 3d
       -0.28939885 0.0053606043 0.028220354 0.07427751
0000b0 79 29 86 3d a2 9a 23 3d d2 69 1c be 77 84 f3 bd
       0.06550879 0.03994239 -0.15274742 -0.118905
0000c0 80 44 94 3d b0 52 2b 3d 5d 96 37 be df a9 b3 3e
       0.07239628 0.041826904 -0.17928453 0.3509054
0000d0 97 b9 6f 3e dc 19 a1 bd 5a 1d 91 bd 89 42 8b bb
       0.2341064 -0.078662604 -0.070856765 -0.004249875
0000e0 76 84 83 3e 2a 02 a2 bd 21 4a 76 bd 52 8e 0a 3c
       0.25686997 -0.07910569 -0.06012929 0.008456783
0000f0 bf 7d 29 3e 73 eb 70 3d 5f c3 b3 be c6 24 38 bd
       0.16551875 0.058818292 -0.35109994 -0.044956945
000100 93 28 2d 3e 0a c9 68 bc de 1b bf bc 20 b8 34 bd
       0.16910009 -0.014208088 -0.023328718 -0.044120908
000110 16 d3 49 3e e6 51 9d bd 30 48 e1 bc 08 22 05 3d
       0.19709429 -0.076816365 -0.027500242 0.032503158
000120 74 1e 56 3e 72 11 bd bd 29 9e 7c 3d ae 68 0c 3e
       0.20910054 -0.09231843 0.06167427 0.13711807
000130 a5 a8 95 3d 4c 9d 74 bb a2 78 4e 3e 39 86 40 3d
       0.07307557 -0.0037325202 0.20163205 0.047003005
000140 35 50 b2 3d 9c b1 96 be 6b 83 68 3d 18 7d 03 bb
       0.087067045 -0.2943238 0.056765955 -0.0020063575
000150 38 4a 4b 3d 82 62 a9 3c 13 a7 8e bd 65 fb 31 3e
       0.049631327 0.020676855 -0.06965461 0.17381056
000160 db 7d f9 bc 25 c2 f4 3c 25 24 2b be e7 7a ab bd
       -0.03045552 0.029877732 -0.16713007 -0.08373051
000170 ee 84 2a be a4 dc af 3d 4c eb cd 3d 4f 88 9a 3c
       -0.16652271 0.08587006 0.10054645 0.018863825
000180 a0 9f 75 bd 52 df a2 3d 1f 88 62 3d 61 d7 15 be
       -0.059966683 0.07952751 0.055305596 -0.14632942
000190 26 c0 bd 3d 1e 74 b8 bd 27 1a 79 3e a4 9b 5a 3c
       0.09265165 -0.090065226 0.24326383 0.013342772
0001a0 c3 a8 96 3e e2 e5 03 3e bd b5 a5 be 96 fb 98 3d
       0.2942563 0.12880662 -0.32365218 0.07469861
0001b0 23 ef ce 3d bc f7 a6 3c 8c 13 00 3d fa 54 6a bd
       0.101042055 0.0203818 0.03126864 -0.057209946
0001c0 c2 8b a1 bb 3c 01 ce 3d ab 95 0b 3e e7 ba dd bd
       -0.0049299905 0.10058829 0.13631313 -0.108266644
0001d0 b5 a9 bb 3d e0 aa 8b 3d 93 7b 5c be 2a bb 91 bd
       0.091632284 0.06819701 -0.21531515 -0.07115777
0001e0 db 1a e5 3d 14 90 db bd c2 b7 e8 3c 0a 33 2a 3e
       0.11186763 -0.1072084 0.028407935 0.16621032
0001f0 15 75 54 be d6 87 a9 bc f0 97 87 3b a3 ce 62 be
       -0.20747788 -0.020694654 0.0041379854 -0.22149138
000200 8d 47 1e be 2a 80 22 be ed f7 53 bc b5 c6 be be
       -0.15456982 -0.15869203 -0.012937528 -0.37260976
000210 61 f7 1b 3e f9 83 5c bc b5 32 86 3d 15 84 60 bc
       0.15231086 -0.013459199 0.0655264 -0.013703366
000220 48 d5 47 be 02 7b 1d bd fc b7 21 bc 9f fc fa 3d
       -0.19514954 -0.038447388 -0.009870525 0.12255215
000230 25 d3 ee 3d 40 e0 3d 3d 1e 35 1d be 90 a1 98 3b
       0.116613664 0.04635644 -0.15352294 0.0046579316
000240 f9 ac 79 be 9b 71 a8 bd 66 40 1a 3e d7 d7 80 3d
       -0.2438239 -0.082247935 0.15063629 0.06291168
000250 9e ff 2c 3c fe ea 18 3e 65 99 2c bd 30 77 05 3d
       0.010558991 0.14933392 -0.042138476 0.03258437
000260 98 cf b6 3d de 54 d1 bd c8 98 80 be ff 27 81 3e
       0.08926314 -0.10221265 -0.25116563 0.25225827
000270 6c 4a a0 3d c6 07 05 be 9f 8d fb 3c 3b c6 25 3e
       0.07826695 -0.12991247 0.030707179 0.161889
000280 32 54 28 3d bd 74 cc bc 0a 97 61 3d 23 2e cc 3d
       0.04109592 -0.024958009 0.055075683 0.099697374
000290 0b c6 2b bd cd b6 7c be b8 6f 02 be 6f e9 bf bd
       -0.041936915 -0.24679108 -0.1273793 -0.09370696
0002a0 a1 79 b6 be f3 0a 8f 3d ef c1 8f bd d1 c7 72 bd
       -0.3563967 0.0698451 -0.07019412 -0.05927259
0002b0 8d 20 61 be b8 44 86 bd ff a2 b6 bc 08 63 af bd
       -0.21985073 -0.06556076 -0.02229452 -0.085638106
0002c0 da dc 87 be af f2 0c 3d a4 b4 8f be 03 54 c0 bd
       -0.26535684 0.03441113 -0.28067505 -0.09391024
0002d0 b1 8f 95 3c dc fd 7f 3e e1 21 09 3d ab a0 ee 3c
       0.018256994 0.24999183 0.033479575 0.029129347
0002e0 a0 49 48 3c e3 82 16 be 09 f6 03 3e 0f e0 3f be
       0.012224585 -0.14698367 0.12886824 -0.18737815
0002f0 7c fc 5a be 90 ca be bd d5 c6 0a be 90 a6 6e be
       -0.21385378 -0.093159795 -0.13552411 -0.23305726
000300 f2 82 4b 3d 5c 6a 94 3d e2 7f 7e bc 8b 5f 3a be
       0.049685426 0.07246849 -0.015533419 -0.18200509
000310 66 73 c9 bd c5 17 ad bd 8a 0c 8b 3d f6 bb 65 bc
       -0.09836464 -0.08451799 0.06789501 -0.014021864
000320 9e f4 b2 3d bf f5 b4 3d ff 76 cd 3b f9 1d e0 bd
       0.08738063 0.08835935 0.006270289 -0.10943217
000330 03 1c 18 be 00 69 86 3c aa c4 46 3e 3c 6a 42 be
       -0.14854436 0.01640749 0.19410959 -0.18985838
000340 05 59 2a 3e 6e a2 5a bd 84 53 89 3a cd d9 1c bd
       0.16635521 -0.05337756 0.001047716 -0.03829365
000350 9b 74 16 3e f2 54 e5 bb da 5f 92 ba ca c0 a9 3e
       0.14692919 -0.0069986517 -0.0011167482 0.331549
000360 27 d8 b3 3d 75 1b 93 3e 5d 3d 32 3e f4 ce de bd
       0.08781462 0.28731886 0.1740622 -0.10879317
000370 73 78 3d 3e a9 40 c8 3d ad 75 a8 3d 0e d9 74 bc
       0.18502979 0.09777958 0.0822557 -0.014944328
000380 c5 eb 3f 3d 1f 73 34 3e 9b bc 40 3d a5 d4 bb bc
       0.046855707 0.1762204 0.04705487 -0.022928545
000390 0a 6f 5e 3e e9 b4 45 be fb 89 bb 3e e5 75 4b be
       0.21722046 -0.19307293 0.36628708 -0.19869192
0003a0 80 a1 94 3e 8a 90 4b bd 7b 76 0f 3e 45 d6 72 bc
       0.29029465 -0.04969839 0.1401004 -0.014821594
0003b0 e2 53 19 bd e9 5e ab bd 3f 8a c8 3d d7 fa a7 bd
       -0.037433513 -0.08367712 0.09791993 -0.08202141
0003c0 c4 ea cd bc 67 6f 0e 3e a6 a2 72 3e 18 a6 b0 bb
       -0.025136359 0.13909684 0.23694858 -0.0053908937
0003d0 41 f6 42 bd c4 1d e7 bc e5 d0 82 3c ac 23 22 be
       -0.047598127 -0.028212436 0.01596875 -0.1583392
0003e0 f0 f8 22 bd 51 71 c8 ba 73 c9 5d bd 72 72 80 be
       -0.039788187 -0.001529256 -0.054147195 -0.25087315
0003f0 d1 af 48 be 4d a3 26 3d 2c 5c 8e 3e 60 17 40 3e
       -0.19598319 0.04068308 0.27804697 0.18758917

fc2.bias f4 [64]
000000 14 38 68 3b 2b 6b 5f 3e 7b b5 fe bd b9 8d 96 bd
       0.0035433816 0.21818225 -0.124369584 -0.0735125
000010 8a a4 79 3d 90 28 b1 3d 5e 79 7c 3c 53 7d 10 be
       0.060947932 0.08650315 0.015409796 -0.14110307
000020 ce 3f b9 bc fa 6a 88 3d 0e 0d df bc ae 03 05 3c
       -0.022613432 0.06661029 -0.027227905 0.008118553
000030 56 d8 7d bd 40 4d e8 3d fe 81 99 bd c4 eb 18 3e
       -0.061973892 0.11342859 -0.07495497 0.14933687
000040 c8 50 1c be 1e 0c 23 bd 0b 73 11 3c c5 b5 66 bb
       -0.1526519 -0.039806478 0.008877526 -0.0035203558
000050 94 08 49 3d dc 7b 01 3e ae dd 2c 3e a8 78 27 be
       0.049080446 0.12644905 0.16881439 -0.1635462
000060 c7 fe c4 bd e7 73 00 3e 44 78 f6 3d d2 c1 69 be
       -0.096189074 0.12544213 0.120346576 -0.22827843
000070 be a5 dd bc eb 0d 78 bd 56 6c c7 bd 77 7a 20 3d
       -0.027056571 -0.06056015 -0.0973746 0.03917929
000080 75 1c fe 3d cb 5a 21 bc ad 5c f2 3b e8 25 9c 3d
       0.124077715 -0.009848307 0.0073963017 0.076244175
000090 bd e0 4e 3d 1f dc f5 bd 19 6b e5 bd 00 7b ca bd
       0.050507296 -0.120048754 -0.11202068 -0.09886742
0000a0 82 b5 93 3e 8a cd ae 3d 87 86 57 bd 4e a5 f3 3e
       0.28849417 0.08535297 -0.05261853 0.47587055
0000b0 e8 6d 80 3e 1a 53 16 bb 3b c8 86 bd f3 8c 32 3d
       0.25083852 -0.0022937716 -0.0658116 0.04359145
0000c0 c9 da f4 bc e6 a9 b9 3e af 66 09 3a 66 43 18 be
       -0.029889481 0.36262435 0.00052414363 -0.1486946
0000d0 58 a6 18 3e f9 4d 09 be dc 86 05 be bb 76 7f 3e
       0.14907205 -0.1340865 -0.13039726 0.24947636
0000e0 39 b0 1f 3e 32 13 04 bd 65 09 44 3d 5a dd c6 bb
       0.15594567 -0.03224487 0.04786052 -0.0060688676
0000f0 05 a7 00 be 0d 77 a1 3d 29 b1 a4 3e 2d e1 60 bd
       -0.12563713 0.07884035 0.32166412 -0.054902244

fc3.weight f4 [4, 64]
000000 4f 7a c1 3e c1 8f 35 3e f9 aa 0d be 36 47 2d 3e
       0.37788627 0.17730619 -0.13834752 0.16921696
000010 f5 ae bc bd bf 97 5f 3e 5e c8 83 3e 14 68 8b bd
       -0.09213058 0.2183523 0.25738806 -0.06806961
000020 03 47 90 be 73 7f 5e 3d 38 c6 aa 3d f3 76 e2 bd
       -0.28179178 0.054320764 0.083385885 -0.11057844
000030 17 57 0f bf 30 12 2f 3e 61 4f d4 bd 54 7c 05 3e
       -0.55992264 0.17096782 -0.10366703 0.13035709
000040 ee eb 03 be 27 b4 a8 3d 5d cd 85 3d d4 99 6e 3e
       -0.12882969 0.08237486 0.065333106 0.23300868
000050 d7 df da 3d 05 bf cb 3d e9 0d 07 3e 43 3f 52 3e
       0.10687225 0.099485435 0.131889 0.20531945
000060 68 9e 3c 3e 53 98 54 3e 0e 46 40 3e 17 1b 14 be
       0.18419802 0.20761232 0.18776724 -0.14463459
000070 26 b8 56 bc 5b 97 e5 3d 23 a3 a5 bd 9a d8 63 3d
       -0.013105428 0.112105094 -0.080877565 0.05562649
000080 26 97 1c be 00 5f 30 be 43 a8 31 3e 0c 7a c4 3e
       -0.15292034 -0.1722374 0.17349343 0.38374364
000090 c2 43 c1 3e c4 b3 de 3d 26 ee bc 3e 73 60 8a 3e
       0.37747008 0.10874131 0.36900443 0.2702671
0000a0 56 e4 13 3e a7 69 e0 3d 0c 22 be be a1 e9 45 3e
       0.14442572 0.109576516 -0.3713535 0.19327404
0000b0 13 b4 cb 3d 60 ed 57 3e 13 24 54 3e 7d 04 33 3d
       0.09946456 0.21086645 0.20716886 0.043705452
0000c0 9c 76 18 bd c7 d5 cc 3d f7 de c9 3d 02 25 ae be
       -0.03722249 0.10001712 0.0985698 -0.3401261
0000d0 92 b2 65 3d 21 e2 94 3e c5 be 5f bd 44 5f 56 3e
       0.0560785 0.29078773 -0.05462529 0.20934778
0000e0 c4 2e b9 3e 2a f3 92 be b1 64 cf 3e d6 76 62 3d
       0.36168492 -0.28701144 0.4050651 0.055289112
0000f0 b9 a1 ae bd df 35 91 be 8a 43 4f 3e f3 ac 2f be
       -0.0852694 -0.28361413 0.20240608 -0.17155819
000100 0e 2a 9b 3e a6 0d c9 3d 4a dc f1 bd 65 d0 89 3d
       0.30305523 0.09817056 -0.11809595 0.06729201
000110 7c 00 e5 3d e5 3d 44 3e ef a6 a0 3e 9c aa d9 bd
       0.11181733 0.19164236 0.3137736 -0.10628244
000120 8b 54 6d 3e b6 37 d3 bb a8 4d ff 3d 10 75 8a 3d
       0.23176782 -0.0064458502 0.12465984 0.06760609
000130 23 85 9a be 40 39 7b 3e 8c 2f 63 be cd 31 18 3e
       -0.301797 0.24533558 -0.22186106 0.14862747
000140 60 11 5e be 74 70 54 3d df 17 74 bd e6 08 b7 3e
       -0.21686316 0.051865056 -0.059593078 0.35748976
000150 2a 1c db 3d 99 d5 11 3e 20 d0 f9 3b f9 53 2b bd
       0.10698731 0.14241637 0.0076236874 -0.04182813
000160 b0 7d 9d be 59 5f 4f 3e ad 5a 26 3e 10 d9 4d bd
       -0.30759954 0.20251216 0.16245528 -0.050255835
000170 c5 21 6d 3d 57 d4 74 3d fd 92 43 bd 19 21 09 3e
       0.057893533 0.059772816 -0.0477476 0.13391532
000180 30 29 1e be c9 2d e1 bd 36 4c c8 3d 41 0a c9 3e
       -0.154454 -0.10995061 0.09780161 0.39265636
000190 6c b8 23 3f dd 42 25 3d 3a 8b aa 3e c1 56 38 3e
       0.6395328 0.04034697 0.33309346 0.18001844
0001a0 24 97 14 3e 53 cf 7e 3e 3c 0e a3 3e 61 a3 5d 3e
       0.1451078 0.24883775 0.31846797 0.21644355
0001b0 ee 10 00 3e b8 57 e8 3d 35 90 21 3e 81 c7 88 be
       0.12506458 0.11344856 0.15777667 -0.2671471
0001c0 09 e8 10 3d c3 52 0e 3e 96 a8 8a 3c 9c 5a 97 be
       0.035377536 0.13898759 0.016926091 -0.29561317
0001d0 5a fc 1a 3d 0d 2e 08 be 9c 8c 93 3d ed 2a 94 3e
       0.037838317 -0.13298817 0.072045535 0.28939
0001e0 12 c1 82 3e df f4 da bd de 4f e0 3e b1 74 c8 bd
       0.25537926 -0.10691237 0.43810934 -0.09787882
0001f0 9c 66 46 3c 3b 70 6c bc 5d 3f 07 3e 97 50 96 bd
       0.012109425 -0.014431055 0.13207765 -0.0733959
000200 8d 65 f9 3e 1f 52 ec bb f2 cc 06 be 7b b1 14 3e
       0.4871029 -0.007211938 -0.13164118 0.14520828
000210 a6 65 87 be 92 89 c0 3d 79 88 ba 3e bc fc ae ba
       -0.2644474 0.094012395 0.36432245 -0.0013350467
000220 a9 a5 fa bc f9 79 80 3d ad 0e 16 be f9 17 0f be
       -0.030596571 0.062732644 -0.14654036 -0.13973989
000230 ba af b6 be 0c 10 81 3e 16 45 f3 be ca 84 b3 3d
       -0.35680944 0.25207555 -0.47513646 0.08765562
000240 b3 03 02 be 97 07 20 3e f4 a0 af bd 8b 7e 0f 3d
       -0.12696724 0.15627895 -0.08575621 0.03503279
000250 08 ff d1 3a b1 a7 97 3e c1 55 7d 3e ef b2 5e 3d
       0.001602144 0.29620126 0.24739744 0.054369863
000260 46 fd 32 bd a0 2a 1b bd 81 95 00 3f 87 cc da bc
       -0.04369857 -0.037882447 0.50228125 -0.026708854
000270 80 e8 33 3e 06 4e 1d be 11 91 46 bd 18 df 6a 3e
       0.1756916 -0.15361795 -0.04847819 0.22936666
000280 95 8b 43 3d 4e 86 de be dd fd c5 be 49 58 99 3e
       0.047740538 -0.4346184 -0.38670245 0.2995017
000290 51 10 ff bd c6 0c f5 bd 02 56 6b 3e 82 d9 42 be
       -0.12454284 -0.11965327 0.22982028 -0.19028285
0002a0 4c 1e f1 3d 36 78 40 3e 5c 31 bf be 5b 7c 38 3e
       0.11773357 0.18795857 -0.37342346 0.18016188
0002b0 e7 cd 50 3e f6 d7 3d bd 8a 1e b2 3e a4 95 69 3d
       0.20391046 -0.046348535 0.34788924 0.057027474
0002c0 0d 6e b7 3d dd cc 15 3e 5b bd ae ba d5 db c4 3d
       0.089565374 0.1462893 -0.0013331579 0.09612242
0002d0 f9 61 34 bd dd 45 34 3e c0 04 5e 3c 3e fc 4d 3e
       -0.044038747 0.17604776 0.013550937 0.20115754
0002e0 1c b3 a4 3e cc 47 90 3d 3b 62 a1 3e 5f 03 b5 3b
       0.321679 0.07044944 0.31520256 0.0055240835
0002f0 0c 29 6e bc de 2e 42 bd 61 e4 1d 3e ce 29 28 3b
       -0.0145361535 -0.047407977 0.15419151 0.0025659683
000300 29 e2 c7 bd 3b 42 f2 3d a6 a8 1d be e9 ba 1b 3e
       -0.097599335 0.11829039 -0.15396366 0.1520802
000310 97 b1 f6 bd 00 93 eb 3d fe 3a 8a 3e 1d e5 5f be
       -0.12045591 0.115026474 0.26998132 -0.21864744
000320 8e 77 9d be 9c 79 69 3e 42 f9 f9 be 37 4b ae 3e
       -0.30755275 0.22800297 -0.4882298 0.3404176
000330 5d 2c 15 be c4 83 4e 3d 94 b5 37 be 05 ab 88 3d
       -0.14567704 0.05041863 -0.1794036 0.066732444
000340 74 1e 5d bd 24 7b bf 3d c5 f0 8a 3e e3 5d de 3e
       -0.05398412 0.09349659 0.27136818 0.43431005
000350 73 af 9f 3e 30 b9 10 3d 73 7d 88 3e 28 42 cc bd
       0.31188545 0.03533286 0.2665821 -0.09973556
000360 a9 e7 d0 3e f4 16 84 3d 1d f0 f1 3d 04 85 1c be
       0.40801743 0.064496905 0.11813376 -0.15285116
000370 4a 94 e0 3d 5a ed 59 3e 65 b2 1b be 6c 5c 25 be
       0.10965784 0.21281949 -0.15204771 -0.16148537
000380 7f 48 01 3f c0 0b 0e be eb cd 9c bd 0d 06 41 3e
       0.50501245 -0.1387167 -0.07656463 0.18849964
000390 f1 08 41 3f cd 3e 05 bb 0c b9 2e 3f 9b 83 39 be
       0.7540427 -0.0020331622 0.6825111 -0.1811661
0003a0 05 ac 83 3d a8 88 12 3e 2d e6 3e be 53 05 6d 3e
       0.064292945 0.14309943 -0.18642493 0.23146562
0003b0 a0 16 11 3e 31 60 7d bd b8 92 2b 3e 95 85 c5 be
       0.14168787 -0.061859313 0.16755188 -0.38578478
0003c0 b1 a2 52 3e 8f 37 36 3e 21 85 b9 3e 50 16 da bb
       0.20569874 0.17794631 0.36234382 -0.006655492
0003d0 4c 93 59 3e 47 37 8a bd f8 0a 4c bd 01 bb de 3d
       0.21247596 -0.067488246 -0.049815148 0.10875512
0003e0 89 f6 42 3e 8c e2 71 bc af 3b 86 3e e3 1f 84 be
       0.19039358 -0.014763486 0.2621741 -0.25805578
0003f0 5b 02 71 bd 76 38 19 bd 84 17 11 3e db 0d ce be
       -0.058840137 -0.03740736 0.14169127 -0.40244946

fc3.bias f4 [4]
000000 a0 6d 87 3e 3e ae 1b 3e ba 70 75 3e f4 b2 2e 3e
       0.26450825 0.15203187 0.23968783 0.17060453
